Models/0_pytorch_workflow_unet.pth (torch, 81992 bytes, 143 tensors)

downs.0.conv.weight f4 [10, 1, 9]
0.1291627 -0.04054968 -0.13519539 0.011948564 -0.21656793 0.07502638 0.038252484 -0.059425853
-0.15367185 0.17958225 -0.029826704 -0.18866587 -0.086453125 0.06118865 0.008577298 0.039225943
-0.23974855 -0.16251865 -0.3082715 -0.2106377 -0.23566268 0.30193406 -0.04863391 -0.32922518
0.15803954 -0.30949065 -0.17126998 -0.19817348 0.009092662 0.20156121 -0.2704833 -0.21543817
-0.28606078 0.18764189 0.04901723 -0.13205384 -0.13985138 0.3012154 0.042656355 -0.07281604
0.02822634 -0.20294519 0.082023755 0.1680107 -0.2717769 0.2738449 -0.07896212 0.17690209
-0.3251886 -0.1308166 0.13082819 0.31656206 0.10491384 -0.024899382 0.2025571 -0.30738643
-0.05222114 -0.10593944 -0.060633775 0.2390386 0.32716903 0.08497726 0.18854183 -0.21857081
0.11698829 -0.19608125 -0.020270752 -0.21727052 0.19990264 -0.17970297 0.31028995 -0.29767224
0.31034362 -0.242236 -0.16105223 -0.22862604 0.2437921 -0.29193652 -0.27505562 0.29405943
-0.34324268 -0.17136918 -0.024332723 0.2049767 0.25049394 -0.06783602 0.29847944 0.154388
-0.20581491 -0.026946638
00000000: 3a43 043e 6c17 26bd a970 0abe e9c3 433c
00000010: fcc3 5dbe 6ea7 993d a3ae 1c3d 8668 73bd
00000020: 275c 1dbe 69e4 373e 2257 f4bc a031 41be
00000030: 560e b1bd f3a0 7a3d cc87 0c3c 62ab 203d
00000040: a580 75be 4a6b 26be c3d5 9dbe 69b1 57be
00000050: 8f51 71be 1a97 9a3e 5a34 47bd 3490 a8be
00000060: 1ed5 213e 8f75 9ebe 6661 2fbe fded 4abe
00000070: 63f9 143c 1066 4e3e c97c 8abe d39b 5cbe
00000080: 8f76 92be 3225 403e 4ac6 483d 1f39 07be
00000090: 3335 0fbe e838 9a3e 6eb8 2e3d 9320 95bd
000000a0: ed3a e73c ddd0 4fbe 12fc a73d ff0a 2c3e
000000b0: 5826 8bbe 6635 8c3e e4b6 a1bd d225 353e
000000c0: 1f7f a6be c9f4 05be d3f7 053e 6c14 a23e
000000d0: 11dd d63d caf9 cbbc 216b 4f3e c161 9dbe
000000e0: d6e5 55bd c7f6 d8bd 1f5b 78bd 89c6 743e
000000f0: b382 a73e 8f08 ae3d 1c11 413e 07d1 5fbe
00000100: 8e97 ef3d 86c9 48be d90e a6bc 2a7c 5ebe
00000110: 47b3 4c3e 0e04 38be 53de 9e3e 7f68 98be
00000120: 5ce5 9e3e b70c 78be e0ea 24be f21c 6abe
00000130: a3a4 793e b478 95be 17d4 8cbe f58e 963e
00000140: 81bd afbe 677b 2fbe 6b55 c7bc 69e5 513e
00000150: be40 803e 9ced 8abd 4cd2 983e e317 1e3e
00000160: 25c1 52be 32bf dcbc

downs.0.conv.bias f4 [10]
-0.17356709 -0.24245405 0.20491995 -0.12984222 0.14487158 0.2579461 -0.20825659 -0.037941393
-0.0610857 -0.058213476
00000000: 92bb 31be e045 78be 89d6 513e 5cf5 04be
00000010: 3759 143e 8311 843e 3741 55be 6f68 1bbd
00000020: 0035 7abd 4171 6ebd

downs.0.norm.weight f4 [10]
0.9960391 1.0128422 1.0067092 1.0185586 0.9907964 1.0037948 0.9776319 0.99607843
0.9942701 0.9797887
00000000: 6bfc 7e3f d0a4 813f d9db 803f 2160 823f
00000010: d5a4 7d3f 597c 803f 1646 7a3f fffe 7e3f
00000020: 7c88 7e3f 6fd3 7a3f

downs.0.norm.bias f4 [10]
-0.01902406 -0.013633111 0.033744533 -0.005359835 -0.011187512 0.03280975 0.019233532 -0.01168089
-0.035252996 -0.022118408
00000000: 58d8 9bbc 695d 5fbc b537 0a3d 8ea1 afbb
00000010: d44b 37bc 8463 063d a48f 9d3c 3461 3fbc
00000020: 7265 10bd aa31 b5bc

downs.0.norm.running_mean f4 [10]
-1.7898061 -2.305017 -5.4578266 -3.4350295 -0.20475434 2.4786508 2.3313928 -2.3253577
-3.4127593 1.9548817
00000000: 5e18 e5bf 6685 13c0 84a6 aec0 86d7 5bc0
00000010: 1fab 51be 37a2 1e40 8a35 1540 a9d2 14c0
00000020: a66a 5ac0 9039 fa3f

downs.0.norm.running_var f4 [10]
196.60736 323.43582 2258.0579 790.5646 16.425089 344.11414 501.80664 374.17926
835.3656 315.06516
00000000: 7c9b 4443 c9b7 a143 ed20 0d45 22a4 4544
00000010: 9566 8341 9c0e ac43 40e7 fa43 f216 bb43
00000020: 66d7 5044 5788 9d43

downs.0.block.0.weight f4 [10, 1, 9]
0.1291627 -0.04054968 -0.13519539 0.011948564 -0.21656793 0.07502638 0.038252484 -0.059425853
-0.15367185 0.17958225 -0.029826704 -0.18866587 -0.086453125 0.06118865 0.008577298 0.039225943
-0.23974855 -0.16251865 -0.3082715 -0.2106377 -0.23566268 0.30193406 -0.04863391 -0.32922518
0.15803954 -0.30949065 -0.17126998 -0.19817348 0.009092662 0.20156121 -0.2704833 -0.21543817
-0.28606078 0.18764189 0.04901723 -0.13205384 -0.13985138 0.3012154 0.042656355 -0.07281604
0.02822634 -0.20294519 0.082023755 0.1680107 -0.2717769 0.2738449 -0.07896212 0.17690209
-0.3251886 -0.1308166 0.13082819 0.31656206 0.10491384 -0.024899382 0.2025571 -0.30738643
-0.05222114 -0.10593944 -0.060633775 0.2390386 0.32716903 0.08497726 0.18854183 -0.21857081
0.11698829 -0.19608125 -0.020270752 -0.21727052 0.19990264 -0.17970297 0.31028995 -0.29767224
0.31034362 -0.242236 -0.16105223 -0.22862604 0.2437921 -0.29193652 -0.27505562 0.29405943
-0.34324268 -0.17136918 -0.024332723 0.2049767 0.25049394 -0.06783602 0.29847944 0.154388
-0.20581491 -0.026946638
00000000: 3a43 043e 6c17 26bd a970 0abe e9c3 433c
00000010: fcc3 5dbe 6ea7 993d a3ae 1c3d 8668 73bd
00000020: 275c 1dbe 69e4 373e 2257 f4bc a031 41be
00000030: 560e b1bd f3a0 7a3d cc87 0c3c 62ab 203d
00000040: a580 75be 4a6b 26be c3d5 9dbe 69b1 57be
00000050: 8f51 71be 1a97 9a3e 5a34 47bd 3490 a8be
00000060: 1ed5 213e 8f75 9ebe 6661 2fbe fded 4abe
00000070: 63f9 143c 1066 4e3e c97c 8abe d39b 5cbe
00000080: 8f76 92be 3225 403e 4ac6 483d 1f39 07be
00000090: 3335 0fbe e838 9a3e 6eb8 2e3d 9320 95bd
000000a0: ed3a e73c ddd0 4fbe 12fc a73d ff0a 2c3e
000000b0: 5826 8bbe 6635 8c3e e4b6 a1bd d225 353e
000000c0: 1f7f a6be c9f4 05be d3f7 053e 6c14 a23e
000000d0: 11dd d63d caf9 cbbc 216b 4f3e c161 9dbe
000000e0: d6e5 55bd c7f6 d8bd 1f5b 78bd 89c6 743e
000000f0: b382 a73e 8f08 ae3d 1c11 413e 07d1 5fbe
00000100: 8e97 ef3d 86c9 48be d90e a6bc 2a7c 5ebe
00000110: 47b3 4c3e 0e04 38be 53de 9e3e 7f68 98be
00000120: 5ce5 9e3e b70c 78be e0ea 24be f21c 6abe
00000130: a3a4 793e b478 95be 17d4 8cbe f58e 963e
00000140: 81bd afbe 677b 2fbe 6b55 c7bc 69e5 513e
00000150: be40 803e 9ced 8abd 4cd2 983e e317 1e3e
00000160: 25c1 52be 32bf dcbc

downs.0.block.0.bias f4 [10]
-0.17356709 -0.24245405 0.20491995 -0.12984222 0.14487158 0.2579461 -0.20825659 -0.037941393
-0.0610857 -0.058213476
00000000: 92bb 31be e045 78be 89d6 513e 5cf5 04be
00000010: 3759 143e 8311 843e 3741 55be 6f68 1bbd
00000020: 0035 7abd 4171 6ebd

downs.0.block.1.weight f4 [10]
0.9960391 1.0128422 1.0067092 1.0185586 0.9907964 1.0037948 0.9776319 0.99607843
0.9942701 0.9797887
00000000: 6bfc 7e3f d0a4 813f d9db 803f 2160 823f
00000010: d5a4 7d3f 597c 803f 1646 7a3f fffe 7e3f
00000020: 7c88 7e3f 6fd3 7a3f

downs.0.block.1.bias f4 [10]
-0.01902406 -0.013633111 0.033744533 -0.005359835 -0.011187512 0.03280975 0.019233532 -0.01168089
-0.035252996 -0.022118408
00000000: 58d8 9bbc 695d 5fbc b537 0a3d 8ea1 afbb
00000010: d44b 37bc 8463 063d a48f 9d3c 3461 3fbc
00000020: 7265 10bd aa31 b5bc

downs.0.block.1.running_mean f4 [10]
-1.7898061 -2.305017 -5.4578266 -3.4350295 -0.20475434 2.4786508 2.3313928 -2.3253577
-3.4127593 1.9548817
00000000: 5e18 e5bf 6685 13c0 84a6 aec0 86d7 5bc0
00000010: 1fab 51be 37a2 1e40 8a35 1540 a9d2 14c0
00000020: a66a 5ac0 9039 fa3f

downs.0.block.1.running_var f4 [10]
196.60736 323.43582 2258.0579 790.5646 16.425089 344.11414 501.80664 374.17926
835.3656 315.06516
00000000: 7c9b 4443 c9b7 a143 ed20 0d45 22a4 4544
00000010: 9566 8341 9c0e ac43 40e7 fa43 f216 bb43
00000020: 66d7 5044 5788 9d43

downs.1.conv.weight f4 [10, 10, 9]
0.0012193144 -0.031847388 -0.051221717 -0.024486415 0.056734234 -0.031097291 -0.064341046 0.028113335
0.07365804 -0.022090107 0.07337062 -0.034870893 -0.04089492 -0.084667794 0.0065993937 0.10371305
-0.027337495 -0.08473248 0.04558241 0.05109915 0.06131259 0.013687399 -0.077486545 -0.06941557
0.06143659 0.04856373 -0.068238944 0.006038066 -0.10690719 0.07183956 0.023215977 -0.06412374
0.026878169 0.008035043 0.03221716 -0.03114342 0.007200714 -0.024850177 -0.039133802 0.01880012
0.05304228 0.042438045 0.10075341 0.08799124 0.06892946 0.04040421 0.09014776 0.11311981
-0.078647025 -0.05496485 -0.024458172 0.09045865 -0.056425773 0.044724476 0.039226543 -0.025237681
-0.06712123 0.05065139 0.092225745 0.023188792 0.09511329 0.09595271 0.01907492 -0.020874139
0.062473513 -0.026882298 0.087013625 -0.03134402 -0.020732775 0.0018325581 -0.09584179 0.048628684
0.07513241 -0.0011628873 -0.10586761 0.016795898 0.0031736866 0.054787774 -0.07083086 -0.009475288
0.07274828 0.029061353 0.066180415 0.09485907 -0.02667214 0.037905846 0.034885213 0.06153398
-0.03472576 -0.0665279 0.022979619 0.027060926 0.008229999 0.045639165 -0.05203683 0.11847546
-0.018481188 0.02136064 0.069002435 0.042820007 0.12269189 0.12235915 -0.008906543 -0.020056337
0.036903486 -0.056718268 0.03401365 -0.083423615 -0.019323414 0.14075513 -0.013291814 -0.033921633
0.02927214 0.12495755 -0.015481953 0.092906505 0.11270213 0.11247619 0.0102416845 0.02764933
0.10917347 0.044292774 0.047941107 0.005893256 -0.059246365 -0.06433329 0.068283305 0.08658698
-0.056955658 -0.055817757 -0.04911641 -0.09633257 -0.031797446 -0.012103524 -0.05402774 -0.068026885
-0.06559701 0.14322686 0.0045038317 -0.012196242 -0.04151428 -0.048912264 -0.009576297 -0.040765118
0.014187603 0.101828605 -0.041564614 -0.052558303 0.056058727 0.09140735 0.045028996 -0.0129105095
0.070649266 0.095799536 0.10045504 0.030531583 0.004781345 0.04906348 0.10195631 -0.045097373
0.08948976 -0.023809463 -0.059980493 0.06195116 0.006063258 0.096261635 0.118451595 -0.01795018
0.065773465 0.10026293 0.09729503 -0.031679817 0.02608896 0.124958135 0.0072352886 0.07222594
-0.053345934 0.047172897 -0.011795573 -0.033766463 -0.027795631 -0.0007293955 0.028454373 -0.088702336
-0.02285305 -0.0018790389 -0.08465577 -0.06125457 -0.0018755861 -0.04297648 -0.013603182 0.026580771
-0.100398004 -0.0067267674 -0.07697893 -0.07678827 0.075524636 0.063975215 -0.09603656 -0.052113954
0.022949697 -0.0707652 0.003984132 -0.055045135 -0.08574602 -0.015947437 -0.08192905 0.020090114
-0.10028283 -0.0049507823 -0.067056514 0.030195208 0.047516823 -0.049796566 -0.05073185 -0.10353529
0.1115263 -0.013585172 0.010598656 -0.03650576 0.04881252 0.09822363 0.06690604 -0.004215558
0.0019297058 -0.054489486 0.009295662 0.10501867 0.026945584 -0.07999057 -0.08756044 0.029856583
0.013693766 0.04504908 0.09711653 -0.085255176 -0.014519119 -0.062272716 0.042387106 -0.076470345
0.086916246 -0.02654859 0.024448443 0.06658089 -0.027607657 -0.083934024 -0.10957927 -0.07673557
0.033204254 0.06865751 0.08120912 -0.008388863 0.08076929 0.07513333 -0.019278962 0.079269625
00000000: 67d1 9f3a 6872 02bd ddcd 51bd bc97 c8bc
00000010: 2862 683d bfbf febc 3dc5 83bd f04d e63c
00000020: 07da 963d 50f6 b4bc 5643 963d c8d4 0ebd
00000030: 6e81 27bd 4f66 adbd ba3f d83b 8267 d43d
00000040: e2f2 dfbc 3988 adbd 9fb4 3a3d 584d 513d
00000050: e922 7b3d 1d41 603c 44b1 9ebd c029 8ebd
00000060: efa4 7b3d c3ea 463d dcc0 8bbd f8da c53b
00000070: 28f2 dabd 9f20 933d 6f2f be3c 4f53 83bd
00000080: 9b2f dc3c 6aa5 033c 24f6 033d 7c20 ffbc
00000090: f8f3 eb3b 9992 cbbc c44a 20bd b602 9a3c
000000a0: dd42 593d 84d3 2d3d ce57 ce3d c034 b43d
000000b0: e42a 8d3d e37e 253d 649f b83d 5cab e73d
000000c0: b111 a1bd d322 61bd 815c c8bc 6242 b93d
000000d0: b61e 67bd 0331 373d 03ac 203d 41bf cebc
000000e0: db76 89bd d577 4f3d dae0 bc3d 6cf6 bd3c
000000f0: c2ca c23d db82 c43d 0243 9c3c 3e00 abbc
00000100: 3ae4 7f3d 4438 dcbc 3334 b23d 9662 00bd
00000110: c8d7 a9bc 7232 f03a b348 c4bd df2e 473d
00000120: 05df 993d 066c 98ba 1ed1 d8bd 8d97 893c
00000130: a0fd 4f3b 2569 603d c50f 91bd 3d3e 1bbc
00000140: 0dfd 943d 1312 ee3c 9989 873d 7945 c23d
00000150: 887f dabc 2943 1b3d cce3 0e3d 0e0b 7c3d
00000160: 993c 0ebd c83f 88bd c13f bc3c e0ae dd3c
00000170: 1ed7 063c 22f0 3a3d 9224 55bd 43a3 f23d
00000180: dc65 97bc 82fc ae3c 2651 8d3d 0864 2f3d
00000190: e345 fb3d 6f97 fa3d c0ec 11bc 304d a4bc
000001a0: 1c28 173d 6a51 68bd e651 0b3d 00da aabd
000001b0: 234c 9ebc 1d22 103e e9c5 59bc 69f1 0abd
000001c0: 20cc ef3c bee9 ff3d 04a8 7dbc c445 be3d
000001d0: 60d0 e63d eb59 e63d bdcc 273c d980 e23c
000001e0: 5796 df3d 576c 353d e55d 443d 371c c13b
000001f0: 51ac 72bd 2cc1 83bd 1ed8 8b3d 8454 b13d
00000200: 564a 69bd 29a1 64bd 4a2e 49bd 034a c5bd
00000210: 0a3e 02bd dc4d 46bc 314c 5dbd ae51 8bbd
00000220: ba57 86bd 10aa 123e e194 933b bfd2 47bc
00000230: e10a 2abd 3a58 48bd e7e5 1cbc 53f9 26bd
00000240: 1f73 683c 848b d03d a83f 2abd 6047 57bd
00000250: d69d 653d c733 bb3d 5370 383d 9a86 53bc
00000260: 90b0 903d 8c32 c43d 5fbb cd3d 5f1d fa3c
00000270: d4ac 9c3b caf6 483d 78ce d03d 06b8 38bd
00000280: 6846 b73d 100c c3bc 1bae 75bd 80c0 7d3d
00000290: 4bae c63b d224 c53d c096 f23d 420c 93bc
000002a0: 3db4 863d a756 cd3d 9e42 c73d b2c2 01bd
000002b0: 84b8 d53c 0dea ff3d 0016 ed3b 32eb 933d
000002c0: 4481 5abd 5e38 413d 3842 41bc b44e 0abd
000002d0: aab3 e3bc e734 3fba 2519 e93c 92a9 b5bd
000002e0: 5236 bbbc 154a f6ba 0160 adbd 12e6 7abd
000002f0: 3ad6 f5ba 1b08 30bd e1df 5ebc ebbf d93c
00000300: 789d cdbd 376c dcbb 21a7 9dbd 2b43 9dbd
00000310: a9ac 9a3d 7005 833d d1ae c4bd 7175 55bd
00000320: 0101 bc3c 58ed 90bd 528d 823b 0277 61bd
00000330: 9c9b afbd 33a4 82bc 6bca a7bd 0694 a43c
00000340: 1661 cdbd 2c3a a2bb ed54 89bd f15b f73c
00000350: 00a1 423d 7cf7 4bbd 33cc 4fbd 4f0a d4bd
00000360: e767 e43d 5794 5ebc fca5 2d3c 1087 15bd
00000370: a3ef 473d 7829 c93d 0906 893d aa22 8abb
00000380: 2fee fc3a 5e30 5fbd d54c 183c 0714 d73d
00000390: fcbc dc3c 19d2 a3bd e352 b3bd cb95 f43c
000003a0: d15b 603c 6285 383d 08e5 c63d 449a aebd
000003b0: 99e1 6dbc ad11 7fbd 1a9e 2d3d 7c9c 9cbd
000003c0: 2501 b23d 6e7c d9bc 1a48 c83c 905b 883d
000003d0: 7429 e2bc 9ae5 abbd 196b e0bd 8a27 9dbd
000003e0: 2f01 083d 4f9c 8c3d f850 a63d 7171 09bc
000003f0: 5f6a a53d 81df 993d eaee 9dbc 1d58 a23d

downs.1.conv.bias f4 [10]
0.07248858 0.08620631 0.08851736 0.10740979 -0.04863534 0.01616636 -0.06497051 0.09447526
0.0039583487 -0.018593013
00000000: e574 943d ef8c b03d 9748 b53d aaf9 db3d
00000010: da35 47bd 506f 843c 420f 85bd 3f7c c13d
00000020: 09b5 813b 6050 98bc

downs.1.norm.weight f4 [10]
0.99511105 1.0189614 0.9901423 0.99636126 1.0201904 0.9970811 0.9858166 0.9904248
1.0068254 0.99686646
00000000: 99bf 7e3f 546d 823f f779 7d3f 8811 7f3f
00000010: 9995 823f b540 7f3f 7a5e 7c3f 7b8c 7d3f
00000020: a8df 803f a432 7f3f

downs.1.norm.bias f4 [10]
0.018855885 -0.017760936 0.024923028 0.005003657 0.027620913 0.01718501 -0.01777629 0.041506298
-0.01650129 0.013591962
00000000: a877 9a3c 627f 91bc 612b cc3c b8f5 a33b
00000010: 4145 e23c 94c7 8c3c 959f 91bc 8202 2a3d
00000020: b72d 87bc d2b0 5e3c

downs.1.norm.running_mean f4 [10]
0.15011694 0.23018858 0.00785356 -0.070274405 -0.15925531 0.041140877 0.03841571 -0.014755686
0.13608524 -0.08955312
00000000: 41b8 193e 8eb6 6b3e 38ac 003c 07ec 8fbd
00000010: d313 23be 5683 283d cb59 1d3d d5c1 71bc
00000020: ee59 0b3e a067 b7bd

downs.1.norm.running_var f4 [10]
0.4125422 0.08647734 0.05480978 0.111100204 0.00818659 0.512907 0.01762238 0.22528921
0.013800783 0.06583515
00000000: bb38 d33e 081b b13d 3880 603d 8188 e33d
00000010: 0c21 063c e04d 033f cf5c 903c 37b2 663e
00000020: ae1c 623c 94d4 863d

downs.1.block.0.weight f4 [10, 10, 9]
0.0012193144 -0.031847388 -0.051221717 -0.024486415 0.056734234 -0.031097291 -0.064341046 0.028113335
0.07365804 -0.022090107 0.07337062 -0.034870893 -0.04089492 -0.084667794 0.0065993937 0.10371305
-0.027337495 -0.08473248 0.04558241 0.05109915 0.06131259 0.013687399 -0.077486545 -0.06941557
0.06143659 0.04856373 -0.068238944 0.006038066 -0.10690719 0.07183956 0.023215977 -0.06412374
0.026878169 0.008035043 0.03221716 -0.03114342 0.007200714 -0.024850177 -0.039133802 0.01880012
0.05304228 0.042438045 0.10075341 0.08799124 0.06892946 0.04040421 0.09014776 0.11311981
-0.078647025 -0.05496485 -0.024458172 0.09045865 -0.056425773 0.044724476 0.039226543 -0.025237681
-0.06712123 0.05065139 0.092225745 0.023188792 0.09511329 0.09595271 0.01907492 -0.020874139
0.062473513 -0.026882298 0.087013625 -0.03134402 -0.020732775 0.0018325581 -0.09584179 0.048628684
0.07513241 -0.0011628873 -0.10586761 0.016795898 0.0031736866 0.054787774 -0.07083086 -0.009475288
0.07274828 0.029061353 0.066180415 0.09485907 -0.02667214 0.037905846 0.034885213 0.06153398
-0.03472576 -0.0665279 0.022979619 0.027060926 0.008229999 0.045639165 -0.05203683 0.11847546
-0.018481188 0.02136064 0.069002435 0.042820007 0.12269189 0.12235915 -0.008906543 -0.020056337
0.036903486 -0.056718268 0.03401365 -0.083423615 -0.019323414 0.14075513 -0.013291814 -0.033921633
0.02927214 0.12495755 -0.015481953 0.092906505 0.11270213 0.11247619 0.0102416845 0.02764933
0.10917347 0.044292774 0.047941107 0.005893256 -0.059246365 -0.06433329 0.068283305 0.08658698
-0.056955658 -0.055817757 -0.04911641 -0.09633257 -0.031797446 -0.012103524 -0.05402774 -0.068026885
-0.06559701 0.14322686 0.0045038317 -0.012196242 -0.04151428 -0.048912264 -0.009576297 -0.040765118
0.014187603 0.101828605 -0.041564614 -0.052558303 0.056058727 0.09140735 0.045028996 -0.0129105095
0.070649266 0.095799536 0.10045504 0.030531583 0.004781345 0.04906348 0.10195631 -0.045097373
0.08948976 -0.023809463 -0.059980493 0.06195116 0.006063258 0.096261635 0.118451595 -0.01795018
0.065773465 0.10026293 0.09729503 -0.031679817 0.02608896 0.124958135 0.0072352886 0.07222594
-0.053345934 0.047172897 -0.011795573 -0.033766463 -0.027795631 -0.0007293955 0.028454373 -0.088702336
-0.02285305 -0.0018790389 -0.08465577 -0.06125457 -0.0018755861 -0.04297648 -0.013603182 0.026580771
-0.100398004 -0.0067267674 -0.07697893 -0.07678827 0.075524636 0.063975215 -0.09603656 -0.052113954
0.022949697 -0.0707652 0.003984132 -0.055045135 -0.08574602 -0.015947437 -0.08192905 0.020090114
-0.10028283 -0.0049507823 -0.067056514 0.030195208 0.047516823 -0.049796566 -0.05073185 -0.10353529
0.1115263 -0.013585172 0.010598656 -0.03650576 0.04881252 0.09822363 0.06690604 -0.004215558
0.0019297058 -0.054489486 0.009295662 0.10501867 0.026945584 -0.07999057 -0.08756044 0.029856583
0.013693766 0.04504908 0.09711653 -0.085255176 -0.014519119 -0.062272716 0.042387106 -0.076470345
0.086916246 -0.02654859 0.024448443 0.06658089 -0.027607657 -0.083934024 -0.10957927 -0.07673557
0.033204254 0.06865751 0.08120912 -0.008388863 0.08076929 0.07513333 -0.019278962 0.079269625
00000000: 67d1 9f3a 6872 02bd ddcd 51bd bc97 c8bc
00000010: 2862 683d bfbf febc 3dc5 83bd f04d e63c
00000020: 07da 963d 50f6 b4bc 5643 963d c8d4 0ebd
00000030: 6e81 27bd 4f66 adbd ba3f d83b 8267 d43d
00000040: e2f2 dfbc 3988 adbd 9fb4 3a3d 584d 513d
00000050: e922 7b3d 1d41 603c 44b1 9ebd c029 8ebd
00000060: efa4 7b3d c3ea 463d dcc0 8bbd f8da c53b
00000070: 28f2 dabd 9f20 933d 6f2f be3c 4f53 83bd
00000080: 9b2f dc3c 6aa5 033c 24f6 033d 7c20 ffbc
00000090: f8f3 eb3b 9992 cbbc c44a 20bd b602 9a3c
000000a0: dd42 593d 84d3 2d3d ce57 ce3d c034 b43d
000000b0: e42a 8d3d e37e 253d 649f b83d 5cab e73d
000000c0: b111 a1bd d322 61bd 815c c8bc 6242 b93d
000000d0: b61e 67bd 0331 373d 03ac 203d 41bf cebc
000000e0: db76 89bd d577 4f3d dae0 bc3d 6cf6 bd3c
000000f0: c2ca c23d db82 c43d 0243 9c3c 3e00 abbc
00000100: 3ae4 7f3d 4438 dcbc 3334 b23d 9662 00bd
00000110: c8d7 a9bc 7232 f03a b348 c4bd df2e 473d
00000120: 05df 993d 066c 98ba 1ed1 d8bd 8d97 893c
00000130: a0fd 4f3b 2569 603d c50f 91bd 3d3e 1bbc
00000140: 0dfd 943d 1312 ee3c 9989 873d 7945 c23d
00000150: 887f dabc 2943 1b3d cce3 0e3d 0e0b 7c3d
00000160: 993c 0ebd c83f 88bd c13f bc3c e0ae dd3c
00000170: 1ed7 063c 22f0 3a3d 9224 55bd 43a3 f23d
00000180: dc65 97bc 82fc ae3c 2651 8d3d 0864 2f3d
00000190: e345 fb3d 6f97 fa3d c0ec 11bc 304d a4bc
000001a0: 1c28 173d 6a51 68bd e651 0b3d 00da aabd
000001b0: 234c 9ebc 1d22 103e e9c5 59bc 69f1 0abd
000001c0: 20cc ef3c bee9 ff3d 04a8 7dbc c445 be3d
000001d0: 60d0 e63d eb59 e63d bdcc 273c d980 e23c
000001e0: 5796 df3d 576c 353d e55d 443d 371c c13b
000001f0: 51ac 72bd 2cc1 83bd 1ed8 8b3d 8454 b13d
00000200: 564a 69bd 29a1 64bd 4a2e 49bd 034a c5bd
00000210: 0a3e 02bd dc4d 46bc 314c 5dbd ae51 8bbd
00000220: ba57 86bd 10aa 123e e194 933b bfd2 47bc
00000230: e10a 2abd 3a58 48bd e7e5 1cbc 53f9 26bd
00000240: 1f73 683c 848b d03d a83f 2abd 6047 57bd
00000250: d69d 653d c733 bb3d 5370 383d 9a86 53bc
00000260: 90b0 903d 8c32 c43d 5fbb cd3d 5f1d fa3c
00000270: d4ac 9c3b caf6 483d 78ce d03d 06b8 38bd
00000280: 6846 b73d 100c c3bc 1bae 75bd 80c0 7d3d
00000290: 4bae c63b d224 c53d c096 f23d 420c 93bc
000002a0: 3db4 863d a756 cd3d 9e42 c73d b2c2 01bd
000002b0: 84b8 d53c 0dea ff3d 0016 ed3b 32eb 933d
000002c0: 4481 5abd 5e38 413d 3842 41bc b44e 0abd
000002d0: aab3 e3bc e734 3fba 2519 e93c 92a9 b5bd
000002e0: 5236 bbbc 154a f6ba 0160 adbd 12e6 7abd
000002f0: 3ad6 f5ba 1b08 30bd e1df 5ebc ebbf d93c
00000300: 789d cdbd 376c dcbb 21a7 9dbd 2b43 9dbd
00000310: a9ac 9a3d 7005 833d d1ae c4bd 7175 55bd
00000320: 0101 bc3c 58ed 90bd 528d 823b 0277 61bd
00000330: 9c9b afbd 33a4 82bc 6bca a7bd 0694 a43c
00000340: 1661 cdbd 2c3a a2bb ed54 89bd f15b f73c
00000350: 00a1 423d 7cf7 4bbd 33cc 4fbd 4f0a d4bd
00000360: e767 e43d 5794 5ebc fca5 2d3c 1087 15bd
00000370: a3ef 473d 7829 c93d 0906 893d aa22 8abb
00000380: 2fee fc3a 5e30 5fbd d54c 183c 0714 d73d
00000390: fcbc dc3c 19d2 a3bd e352 b3bd cb95 f43c
000003a0: d15b 603c 6285 383d 08e5 c63d 449a aebd
000003b0: 99e1 6dbc ad11 7fbd 1a9e 2d3d 7c9c 9cbd
000003c0: 2501 b23d 6e7c d9bc 1a48 c83c 905b 883d
000003d0: 7429 e2bc 9ae5 abbd 196b e0bd 8a27 9dbd
000003e0: 2f01 083d 4f9c 8c3d f850 a63d 7171 09bc
000003f0: 5f6a a53d 81df 993d eaee 9dbc 1d58 a23d

downs.1.block.0.bias f4 [10]
0.07248858 0.08620631 0.08851736 0.10740979 -0.04863534 0.01616636 -0.06497051 0.09447526
0.0039583487 -0.018593013
00000000: e574 943d ef8c b03d 9748 b53d aaf9 db3d
00000010: da35 47bd 506f 843c 420f 85bd 3f7c c13d
00000020: 09b5 813b 6050 98bc

downs.1.block.1.weight f4 [10]
0.99511105 1.0189614 0.9901423 0.99636126 1.0201904 0.9970811 0.9858166 0.9904248
1.0068254 0.99686646
00000000: 99bf 7e3f 546d 823f f779 7d3f 8811 7f3f
00000010: 9995 823f b540 7f3f 7a5e 7c3f 7b8c 7d3f
00000020: a8df 803f a432 7f3f

downs.1.block.1.bias f4 [10]
0.018855885 -0.017760936 0.024923028 0.005003657 0.027620913 0.01718501 -0.01777629 0.041506298
-0.01650129 0.013591962
00000000: a877 9a3c 627f 91bc 612b cc3c b8f5 a33b
00000010: 4145 e23c 94c7 8c3c 959f 91bc 8202 2a3d
00000020: b72d 87bc d2b0 5e3c

downs.1.block.1.running_mean f4 [10]
0.15011694 0.23018858 0.00785356 -0.070274405 -0.15925531 0.041140877 0.03841571 -0.014755686
0.13608524 -0.08955312
00000000: 41b8 193e 8eb6 6b3e 38ac 003c 07ec 8fbd
00000010: d313 23be 5683 283d cb59 1d3d d5c1 71bc
00000020: ee59 0b3e a067 b7bd

downs.1.block.1.running_var f4 [10]
0.4125422 0.08647734 0.05480978 0.111100204 0.00818659 0.512907 0.01762238 0.22528921
0.013800783 0.06583515
00000000: bb38 d33e 081b b13d 3880 603d 8188 e33d
00000010: 0c21 063c e04d 033f cf5c 903c 37b2 663e
00000020: ae1c 623c 94d4 863d

downs.2.conv.weight f4 [10, 10, 6]
0.07844885 -0.07722162 -0.10075776 0.06226021 -0.05683486 0.11550696 0.07853138 0.041484464
-0.13916817 -0.048025504 -0.009167603 -0.02665632 -0.107962444 -0.058920033 0.07675812 -0.11256755
-0.0909498 -0.1199983 -0.02091727 -0.08959882 0.024379408 0.0034849304 0.036201112 0.053497203
0.012558173 -0.06533694 0.13508584 0.06398699 -0.008160173 0.11422128 0.12930208 0.028512849
-0.0448189 -0.1155967 0.061519757 -0.008903379 -0.06084398 -0.09711489 0.092990056 0.11233508
-0.07687665 -0.058626328 -0.0046403315 0.04926846 -0.023528598 -0.065935336 0.04579414 -0.008074771
-0.0047436357 -0.017033905 -0.061043926 -0.033528604 -0.06432266 -0.0027774866 -0.01752908 0.13894029
0.08982953 -0.094813146 0.013598838 -0.06969037 -0.09013287 0.005320891 -0.110765606 -0.038675122
0.06390401 0.12872794 -0.035631783 0.10912933 -0.08658006 0.051454503 0.04652448 -0.0025092138
-0.0059130997 -0.050758716 -0.018282784 0.07278913 -0.037168276 0.04538106 0.1063717 0.03608649
0.0349716 0.0026164043 -0.046041083 0.048343785 -0.042585775 -0.10455431 0.047805585 0.05252024
-0.07153324 0.05691297 -0.04201699 -0.038568046 0.021641396 -0.06226536 0.083601356 0.015278271
-0.09366272 -0.07458185 0.09207373 0.10417713 -0.044055246 -0.004737829 -0.08776133 -0.09866885
-0.02066693 -0.004279281 -0.108992405 0.12046864 0.03598533 -0.09963045 -0.109674536 -0.14712523
0.0940603 -0.01845902 0.024085801 0.12338492 -0.014640817 -0.036028598 -0.049788963 -0.018932015
0.09046303 0.04480879 -0.08902699 0.10452342 0.012191877 0.013637082 -0.12527432 -0.08397593
0.05791415 0.10913917 -0.039848626 -0.11795786 0.006045344 -0.054024834 0.0035824515 0.026676409
-0.08806657 0.021255333 0.032309692 0.0083227195 0.08650684 -0.0022009327 -0.008652548 -0.018884879
0.10953935 -0.028984683 -0.062534906 0.10617153 -0.045093413 0.0622724 -0.0103985835 0.05005099
-0.033067033 -0.030707857 0.08196317 0.07539652 0.085021734 0.047302462 0.04432659 0.085830174
-0.06091437 0.13334896 0.005468699 0.05808122 0.023380838 -0.09575384 -0.08914589 -0.07812743
-0.10390588 0.118142046 0.039835636 0.09350984 -0.0077810776 0.015403323 -0.06793371 0.038746804
0.051988523 -0.063061 0.014947047 -0.0042695543 0.0093577495 0.13248557 -0.09169938 -0.042454414
0.032193914 0.10664046 -0.096703395 0.045787808 0.102391504 0.025766728 -0.11435298 -0.014695112
0.13371862 -0.08119285 0.114075 0.09814301 0.13314928 -0.08957622 -0.018879035 -0.07881847
0.043023445 0.06512965 -0.11302437 0.011709732 -0.07757428 -0.04924231 0.08991365 0.06841661
-0.012160275 -0.060883194 -0.121245965 0.09499094 -0.059509832 0.031678863 0.060946275 -0.106469646
-0.0066562784 -0.05760725 0.12414125 0.12336864 -0.04291521 -0.032022327 0.116771854 0.064082146
-0.10072664 -0.008608618 0.02926687 0.109943956 0.010012834 0.04375609 0.011405372 -0.039995946
0.088760465 0.10177299 -0.005796621 0.059300452 0.037002582 0.04175949 -0.053688668 0.038963884
-0.041348793 0.096031226 -0.00824425 -0.10969671 0.03920362 -0.010962312 -0.13913004 -0.02126043
-0.14530322 0.011442442 -0.10865588 -0.07749971 0.09327377 -0.1328529 0.07209837 -0.015178076
00000000: caa9 a03d 5e26 9ebd 165a cebd 9004 7f3d
00000010: accb 68bd ea8e ec3d 0fd5 a03d 9deb 293d
00000020: 1a82 0ebe 64b6 44bd b733 16bc 5b5e dabc
00000030: 6a1b ddbd 2256 71bd 5c33 9d3d d189 e6bd
00000040: e443 babd abc1 f5bd b25a abbc 967f b7bd
00000050: 53b7 c73c 6e63 643b 9e47 143d e21f 5b3d
00000060: ccc0 4d3c 60cf 85bd f153 0a3e 9c0b 833d
00000070: 3fb2 05bc d9ec e93d c467 043e c793 e93c
00000080: 0694 37bd f6bd ecbd 24fc 7b3d 7adf 11bc
00000090: 8a37 79bd 2ce4 c6bd 9271 be3d ef0f e63d
000000a0: 8171 9dbd 2922 70bd ec0d 98bb bacd 493d
000000b0: 0cbf c0bc 1b09 87bd a392 3b3d 0b4c 04bc
000000c0: 8070 9bbb b08a 8bbc 3209 7abd 4a55 09bd
000000d0: 99bb 83bd 7e06 36bb 2599 8fbc 5d46 0e3e
000000e0: 8bf8 b73d 652d c2bd a9cd 5e3c d3b9 8ebd
000000f0: 9597 b8bd de5a ae3b 14d9 e2bd ce69 1ebd
00000100: 1be0 823d 42d1 033e a2f2 11bd 337f df3d
00000110: e350 b1bd f5c1 523d 7490 3e3d 9f71 24bb
00000120: adc2 c1bb 5fe8 4fbd c7c5 95bc 7812 953d
00000130: c33d 18bd 7ee1 393d 68d9 d93d 6dcf 133d
00000140: 613e 0f3d fb77 2b3b 9395 3cbd 2204 463d
00000150: 6c6e 2ebd 9220 d6bd cacf 433d 771f 573d
00000160: 0580 92bd 931d 693d 021a 2cbd 87f9 1dbd
00000170: 4c49 b13c f609 7fbd 3037 ab3d b751 7a3c
00000180: 3dd2 bfbd 5ebe 98bd 2791 bc3d d25a d53d
00000190: 4673 34bd ca3f 9bbb 36bc b3bd e512 cabd
000001a0: b24d a9bc 3639 8cbb 6937 dfbd 43b8 f63d
000001b0: 5a65 133d 0d0b ccbd 0b9d e0bd ffa7 16be
000001c0: b0a2 c03d 5f37 97bc 964f c53c 3cb1 fc3d
000001d0: 0ae0 6fbc b992 13bd 83ef 4bbd 5017 9bbc
000001e0: ae44 b93d 6c89 373d c853 b6bd 6010 d63d
000001f0: 70c0 473c 116e 5f3c e947 00be 93fb abbd
00000200: 6337 6d3d 5b84 df3d 5038 23bd e493 f1bd
00000210: 0518 c63b 2549 5dbd 90c7 6a3b 7c88 da3c
00000220: 3f5c b4bd aa1f ae3c 2b57 043d 045c 083c
00000230: 802a b13d 863d 10bb 6bc3 0dbc 76b4 9abc
00000240: 2b56 e03d 4971 edbc 4d12 80bd 7670 d93d
00000250: dfb3 38bd 5811 7f3d d25e 2abc 4402 4d3d
00000260: 4c71 07bd 0b8f fbbc 4edc a73d 7e69 9a3d
00000270: e01f ae3d 3ac0 413d cc8f 353d bbc7 af3d
00000280: 5981 79bd a18c 083e c632 b33b 93e6 6d3d
00000290: 2c89 bf3c 971a c4bd 1f92 b6bd 4601 a0bd
000002a0: 9bcc d4bd 75f4 f13d b12a 233d 1682 bf3d
000002b0: 69f8 febb 385e 7c3c d420 8bbd f8b4 1e3d
000002c0: ebf1 543d 2026 81bd 76e4 743c 9ee7 8bbb
000002d0: 3f51 193c 4caa 073e e2cc bbbd aee4 2dbd
000002e0: c4dd 033d 5066 da3d 6e0c c6bd ff8b 3b3d
000002f0: a3b2 d13d bf14 d33c e531 eabd c4c3 70bc
00000300: 89ed 083e 7048 a6bd 27a0 e93d 34ff c83d
00000310: 4958 083e bd73 b7bd 35a8 9abc 946b a1bd
00000320: 5a39 303d b262 853d 5279 e7bd 2dda 3f3c
00000330: 44df 9ebd 4eb2 49bd a624 b83d 021e 8c3d
00000340: e43b 47bc a860 79bd ce4f f8bd 9c8a c23d
00000350: 95c0 73bd b2c1 013d cda2 793d c20c dabd
00000360: e91c dabb 94f5 6bbd c53d fe3d b3a8 fc3d
00000370: dcc7 2fbd d829 03bd 1526 ef3d 803d 833d
00000380: c549 cebd 290b 0dbc 13c1 ef3c 4c2a e13d
00000390: df0c 243c 9639 333d 99dd 3a3c cad2 23bd
000003a0: 0cc8 b53d 5b6e d03d 95f1 bdbb 08e5 723d
000003b0: 0590 173d 000c 2b3d a6e8 5bbd 9898 1f3d
000003c0: 5a5d 29bd 05ac c43d e412 07bc aba8 e0bd
000003d0: fa93 203d 459b 33bc 1b78 0ebe 5a2a aebc
000003e0: 5eca 14be 1579 3b3c f986 debd 2bb8 9ebd
000003f0: 5106 bf3d 970a 08be 4fa8 933d 77ad 78bc

downs.2.conv.bias f4 [10]
-0.016489802 -0.058819707 0.115530334 0.12645555 -0.0030378932 0.05472626 -0.0342244 -0.09530985
0.06609097 -0.027086023
00000000: 9f15 87bc efec 70bd 2b9b ec3d 907d 013e
00000010: 6417 47bb a528 603d e22e 0cbd d031 c3bd
00000020: b45a 873d 82e3 ddbc

downs.2.norm.weight f4 [10]
1.0038196 0.9869715 1.0006751 1.0074005 1.02476 0.9987681 0.97811866 0.9686488
1.0167726 0.9835923
00000000: 297d 803f 2aaa 7c3f 1f16 803f 80f2 803f
00000010: 562b 833f 44af 7f3f fc65 7a3f 5ef9 773f
00000020: 9b25 823f b4cc 7b3f

downs.2.norm.bias f4 [10]
0.006468212 0.011385209 -0.029483903 0.008960194 0.04132471 0.026446752 0.005083709 -0.02438317
0.02359484 -0.03435696
00000000: 4cf3 d33b 0789 3a3c 3a88 f1bc c7cd 123c
00000010: 1944 293d dca6 d83c 3e95 a63b 37bf c7bc
00000020: f749 c13c e2b9 0cbd

downs.2.norm.running_mean f4 [10]
-0.06647397 -0.11516573 0.18179573 0.2303501 -0.016171666 0.057209276 -0.008718842 -0.0072747725
0.002771222 -0.0144464
00000000: 8123 88bd 03dc ebbd a928 3a3e e6e0 6b3e
00000010: 717a 84bc 4654 6a3d 79d9 0ebc 3761 eebb
00000020: 649d 353b 98b0 6cbc

downs.2.norm.running_var f4 [10]
0.17436227 0.27902558 0.09697431 0.3384644 0.11490997 0.25202665 0.7173735 0.3932794
0.5121823 0.18563545
00000000: 068c 323e 71dc 8e3e 789a c63d 354b ad3e
00000010: eb55 eb3d a309 813e caa5 373f eb5b c93e
00000020: 611e 033f 3817 3e3e

downs.2.block.0.weight f4 [10, 10, 6]
0.07844885 -0.07722162 -0.10075776 0.06226021 -0.05683486 0.11550696 0.07853138 0.041484464
-0.13916817 -0.048025504 -0.009167603 -0.02665632 -0.107962444 -0.058920033 0.07675812 -0.11256755
-0.0909498 -0.1199983 -0.02091727 -0.08959882 0.024379408 0.0034849304 0.036201112 0.053497203
0.012558173 -0.06533694 0.13508584 0.06398699 -0.008160173 0.11422128 0.12930208 0.028512849
-0.0448189 -0.1155967 0.061519757 -0.008903379 -0.06084398 -0.09711489 0.092990056 0.11233508
-0.07687665 -0.058626328 -0.0046403315 0.04926846 -0.023528598 -0.065935336 0.04579414 -0.008074771
-0.0047436357 -0.017033905 -0.061043926 -0.033528604 -0.06432266 -0.0027774866 -0.01752908 0.13894029
0.08982953 -0.094813146 0.013598838 -0.06969037 -0.09013287 0.005320891 -0.110765606 -0.038675122
0.06390401 0.12872794 -0.035631783 0.10912933 -0.08658006 0.051454503 0.04652448 -0.0025092138
-0.0059130997 -0.050758716 -0.018282784 0.07278913 -0.037168276 0.04538106 0.1063717 0.03608649
0.0349716 0.0026164043 -0.046041083 0.048343785 -0.042585775 -0.10455431 0.047805585 0.05252024
-0.07153324 0.05691297 -0.04201699 -0.038568046 0.021641396 -0.06226536 0.083601356 0.015278271
-0.09366272 -0.07458185 0.09207373 0.10417713 -0.044055246 -0.004737829 -0.08776133 -0.09866885
-0.02066693 -0.004279281 -0.108992405 0.12046864 0.03598533 -0.09963045 -0.109674536 -0.14712523
0.0940603 -0.01845902 0.024085801 0.12338492 -0.014640817 -0.036028598 -0.049788963 -0.018932015
0.09046303 0.04480879 -0.08902699 0.10452342 0.012191877 0.013637082 -0.12527432 -0.08397593
0.05791415 0.10913917 -0.039848626 -0.11795786 0.006045344 -0.054024834 0.0035824515 0.026676409
-0.08806657 0.021255333 0.032309692 0.0083227195 0.08650684 -0.0022009327 -0.008652548 -0.018884879
0.10953935 -0.028984683 -0.062534906 0.10617153 -0.045093413 0.0622724 -0.0103985835 0.05005099
-0.033067033 -0.030707857 0.08196317 0.07539652 0.085021734 0.047302462 0.04432659 0.085830174
-0.06091437 0.13334896 0.005468699 0.05808122 0.023380838 -0.09575384 -0.08914589 -0.07812743
-0.10390588 0.118142046 0.039835636 0.09350984 -0.0077810776 0.015403323 -0.06793371 0.038746804
0.051988523 -0.063061 0.014947047 -0.0042695543 0.0093577495 0.13248557 -0.09169938 -0.042454414
0.032193914 0.10664046 -0.096703395 0.045787808 0.102391504 0.025766728 -0.11435298 -0.014695112
0.13371862 -0.08119285 0.114075 0.09814301 0.13314928 -0.08957622 -0.018879035 -0.07881847
0.043023445 0.06512965 -0.11302437 0.011709732 -0.07757428 -0.04924231 0.08991365 0.06841661
-0.012160275 -0.060883194 -0.121245965 0.09499094 -0.059509832 0.031678863 0.060946275 -0.106469646
-0.0066562784 -0.05760725 0.12414125 0.12336864 -0.04291521 -0.032022327 0.116771854 0.064082146
-0.10072664 -0.008608618 0.02926687 0.109943956 0.010012834 0.04375609 0.011405372 -0.039995946
0.088760465 0.10177299 -0.005796621 0.059300452 0.037002582 0.04175949 -0.053688668 0.038963884
-0.041348793 0.096031226 -0.00824425 -0.10969671 0.03920362 -0.010962312 -0.13913004 -0.02126043
-0.14530322 0.011442442 -0.10865588 -0.07749971 0.09327377 -0.1328529 0.07209837 -0.015178076
00000000: caa9 a03d 5e26 9ebd 165a cebd 9004 7f3d
00000010: accb 68bd ea8e ec3d 0fd5 a03d 9deb 293d
00000020: 1a82 0ebe 64b6 44bd b733 16bc 5b5e dabc
00000030: 6a1b ddbd 2256 71bd 5c33 9d3d d189 e6bd
00000040: e443 babd abc1 f5bd b25a abbc 967f b7bd
00000050: 53b7 c73c 6e63 643b 9e47 143d e21f 5b3d
00000060: ccc0 4d3c 60cf 85bd f153 0a3e 9c0b 833d
00000070: 3fb2 05bc d9ec e93d c467 043e c793 e93c
00000080: 0694 37bd f6bd ecbd 24fc 7b3d 7adf 11bc
00000090: 8a37 79bd 2ce4 c6bd 9271 be3d ef0f e63d
000000a0: 8171 9dbd 2922 70bd ec0d 98bb bacd 493d
000000b0: 0cbf c0bc 1b09 87bd a392 3b3d 0b4c 04bc
000000c0: 8070 9bbb b08a 8bbc 3209 7abd 4a55 09bd
000000d0: 99bb 83bd 7e06 36bb 2599 8fbc 5d46 0e3e
000000e0: 8bf8 b73d 652d c2bd a9cd 5e3c d3b9 8ebd
000000f0: 9597 b8bd de5a ae3b 14d9 e2bd ce69 1ebd
00000100: 1be0 823d 42d1 033e a2f2 11bd 337f df3d
00000110: e350 b1bd f5c1 523d 7490 3e3d 9f71 24bb
00000120: adc2 c1bb 5fe8 4fbd c7c5 95bc 7812 953d
00000130: c33d 18bd 7ee1 393d 68d9 d93d 6dcf 133d
00000140: 613e 0f3d fb77 2b3b 9395 3cbd 2204 463d
00000150: 6c6e 2ebd 9220 d6bd cacf 433d 771f 573d
00000160: 0580 92bd 931d 693d 021a 2cbd 87f9 1dbd
00000170: 4c49 b13c f609 7fbd 3037 ab3d b751 7a3c
00000180: 3dd2 bfbd 5ebe 98bd 2791 bc3d d25a d53d
00000190: 4673 34bd ca3f 9bbb 36bc b3bd e512 cabd
000001a0: b24d a9bc 3639 8cbb 6937 dfbd 43b8 f63d
000001b0: 5a65 133d 0d0b ccbd 0b9d e0bd ffa7 16be
000001c0: b0a2 c03d 5f37 97bc 964f c53c 3cb1 fc3d
000001d0: 0ae0 6fbc b992 13bd 83ef 4bbd 5017 9bbc
000001e0: ae44 b93d 6c89 373d c853 b6bd 6010 d63d
000001f0: 70c0 473c 116e 5f3c e947 00be 93fb abbd
00000200: 6337 6d3d 5b84 df3d 5038 23bd e493 f1bd
00000210: 0518 c63b 2549 5dbd 90c7 6a3b 7c88 da3c
00000220: 3f5c b4bd aa1f ae3c 2b57 043d 045c 083c
00000230: 802a b13d 863d 10bb 6bc3 0dbc 76b4 9abc
00000240: 2b56 e03d 4971 edbc 4d12 80bd 7670 d93d
00000250: dfb3 38bd 5811 7f3d d25e 2abc 4402 4d3d
00000260: 4c71 07bd 0b8f fbbc 4edc a73d 7e69 9a3d
00000270: e01f ae3d 3ac0 413d cc8f 353d bbc7 af3d
00000280: 5981 79bd a18c 083e c632 b33b 93e6 6d3d
00000290: 2c89 bf3c 971a c4bd 1f92 b6bd 4601 a0bd
000002a0: 9bcc d4bd 75f4 f13d b12a 233d 1682 bf3d
000002b0: 69f8 febb 385e 7c3c d420 8bbd f8b4 1e3d
000002c0: ebf1 543d 2026 81bd 76e4 743c 9ee7 8bbb
000002d0: 3f51 193c 4caa 073e e2cc bbbd aee4 2dbd
000002e0: c4dd 033d 5066 da3d 6e0c c6bd ff8b 3b3d
000002f0: a3b2 d13d bf14 d33c e531 eabd c4c3 70bc
00000300: 89ed 083e 7048 a6bd 27a0 e93d 34ff c83d
00000310: 4958 083e bd73 b7bd 35a8 9abc 946b a1bd
00000320: 5a39 303d b262 853d 5279 e7bd 2dda 3f3c
00000330: 44df 9ebd 4eb2 49bd a624 b83d 021e 8c3d
00000340: e43b 47bc a860 79bd ce4f f8bd 9c8a c23d
00000350: 95c0 73bd b2c1 013d cda2 793d c20c dabd
00000360: e91c dabb 94f5 6bbd c53d fe3d b3a8 fc3d
00000370: dcc7 2fbd d829 03bd 1526 ef3d 803d 833d
00000380: c549 cebd 290b 0dbc 13c1 ef3c 4c2a e13d
00000390: df0c 243c 9639 333d 99dd 3a3c cad2 23bd
000003a0: 0cc8 b53d 5b6e d03d 95f1 bdbb 08e5 723d
000003b0: 0590 173d 000c 2b3d a6e8 5bbd 9898 1f3d
000003c0: 5a5d 29bd 05ac c43d e412 07bc aba8 e0bd
000003d0: fa93 203d 459b 33bc 1b78 0ebe 5a2a aebc
000003e0: 5eca 14be 1579 3b3c f986 debd 2bb8 9ebd
000003f0: 5106 bf3d 970a 08be 4fa8 933d 77ad 78bc

downs.2.block.0.bias f4 [10]
-0.016489802 -0.058819707 0.115530334 0.12645555 -0.0030378932 0.05472626 -0.0342244 -0.09530985
0.06609097 -0.027086023
00000000: 9f15 87bc efec 70bd 2b9b ec3d 907d 013e
00000010: 6417 47bb a528 603d e22e 0cbd d031 c3bd
00000020: b45a 873d 82e3 ddbc

downs.2.block.1.weight f4 [10]
1.0038196 0.9869715 1.0006751 1.0074005 1.02476 0.9987681 0.97811866 0.9686488
1.0167726 0.9835923
00000000: 297d 803f 2aaa 7c3f 1f16 803f 80f2 803f
00000010: 562b 833f 44af 7f3f fc65 7a3f 5ef9 773f
00000020: 9b25 823f b4cc 7b3f

downs.2.block.1.bias f4 [10]
0.006468212 0.011385209 -0.029483903 0.008960194 0.04132471 0.026446752 0.005083709 -0.02438317
0.02359484 -0.03435696
00000000: 4cf3 d33b 0789 3a3c 3a88 f1bc c7cd 123c
00000010: 1944 293d dca6 d83c 3e95 a63b 37bf c7bc
00000020: f749 c13c e2b9 0cbd

downs.2.block.1.running_mean f4 [10]
-0.06647397 -0.11516573 0.18179573 0.2303501 -0.016171666 0.057209276 -0.008718842 -0.0072747725
0.002771222 -0.0144464
00000000: 8123 88bd 03dc ebbd a928 3a3e e6e0 6b3e
00000010: 717a 84bc 4654 6a3d 79d9 0ebc 3761 eebb
00000020: 649d 353b 98b0 6cbc

downs.2.block.1.running_var f4 [10]
0.17436227 0.27902558 0.09697431 0.3384644 0.11490997 0.25202665 0.7173735 0.3932794
0.5121823 0.18563545
00000000: 068c 323e 71dc 8e3e 789a c63d 354b ad3e
00000010: eb55 eb3d a309 813e caa5 373f eb5b c93e
00000020: 611e 033f 3817 3e3e

downs.3.conv.weight f4 [10, 10, 6]
0.06520115 -0.04916792 0.063151956 0.07606357 0.05994116 0.1251505 -0.08283344 -0.039961394
-0.04623559 -0.06709672 -0.050036877 -0.0367485 0.0742282 0.12289463 0.046591226 0.10844707
-0.09132082 0.12300675 0.053781237 0.022370476 -0.013486518 0.1052069 -0.06685484 0.009368034
0.101086035 0.092309944 0.060617756 -0.09696882 0.115364164 0.0046170424 -0.06600074 0.05257583
0.035816114 0.09450516 0.06685716 0.105847664 0.002834066 0.058759242 -0.03015987 -0.045651793
0.0020121422 0.10084171 -0.008608494 -0.122678466 0.07138124 -0.047737293 -0.110689 0.02133171
-0.01600208 0.09832045 -0.00712039 -0.008063208 0.04418767 0.009025927 -0.0059046033 0.11326536
-0.009562055 0.059525896 -0.032780148 -0.0016429143 -0.04921826 -0.018797481 -0.03796548 -0.002357675
0.015361363 0.06820565 0.027835947 0.100155905 0.116792865 0.11783931 -0.037796684 -0.015772011
0.085060544 0.08030765 0.113986455 -0.01710131 0.04688913 -0.02799541 0.016792502 0.0055149887
0.01766684 -0.1128886 0.1430902 -0.050783403 0.037633814 0.031951312 -0.086987115 0.022768226
-0.1279487 0.034400374 0.060782917 0.1319897 0.0007093139 0.10402506 -0.027671378 0.065462396
0.09607075 0.079620026 -0.081345305 0.010625768 0.041615427 -0.018471576 -0.124769315 0.075939715
0.042058494 -0.017419076 -0.104186885 -0.0450434 -0.1147646 -0.06549061 -0.009172045 -0.113614336
-0.119680986 0.011696538 -0.09160558 0.023986744 0.072352335 -0.071767986 0.13912328 0.043661736
0.024862576 -0.1017486 -0.04702173 -0.024657412 0.019393915 -0.030416891 0.0036176404 -0.005191622
-0.07486333 0.04957834 0.084943965 -0.0050420887 -0.009075811 -0.11660267 0.10051347 0.042615704
0.12811461 -0.10626265 -0.14559634 0.079211526 0.00238274 -0.007885596 0.00817241 -0.09255676
-0.14270443 -0.045737736 -0.0781714 0.0382612 -0.06979324 -0.090367764 -0.043889094 -0.0030700434
-0.08319394 -0.0056867404 -0.092789605 0.055571485 0.10934392 -0.012400687 -0.08859931 -0.06644812
0.0013136392 0.071858644 0.02615544 -0.0399874 -0.11521835 -0.05245649 -0.014975032 -0.054444563
-0.00866438 0.15464391 0.12200641 0.026329152 -0.10595064 -0.0028358903 -0.048858736 -0.019480934
0.095022805 -0.054565646 -0.02326 0.018157735 -0.0761986 0.07292631 0.07006528 0.039824814
-0.06054334 0.10919449 -0.09361171 -0.0743973 0.093449675 0.079447515 0.10568336 0.063546985
-0.0006528301 0.07676384 0.014938805 0.028191129 -0.014240135 -0.11263586 -0.052922823 -0.11206244
-0.08949141 0.04507638 -0.042615667 -0.09507112 0.044227835 0.07920772 -0.026008723 -0.01830596
0.04479213 0.13626692 -0.06499635 -0.05598863 -0.09674936 -0.04478396 0.10450016 -0.007988674
0.083214395 -0.00056813116 -0.031013288 0.005249602 -0.042621795 0.12959653 -0.016035087 -0.031024247
-0.10699393 -0.002728788 0.02222947 -0.058765516 -0.04692287 -0.10930422 -0.062335566 -0.05998375
-0.12428996 -0.014907025 0.04711779 -0.018768478 -0.021145422 0.121240206 0.1118174 0.056100238
0.07246506 0.074351445 -0.043237075 -0.039423943 -0.11010788 0.033247538 -0.022400616 -0.068153836
0.04765463 -0.08902598 0.0626033 -0.10898368 -0.027634762 -0.048248388 -0.0028876988 0.12850207
00000000: 2e88 853d 4d64 49bd d055 813d 38c7 9b3d
00000010: dd84 753d 7427 003e 94a4 a9bd 8fae 23bd
00000020: 8861 3dbd 016a 89bd 78f3 4cbd 9885 16bd
00000030: f404 983d 2eb0 fb3d 71d6 3e3d 7f19 de3d
00000040: 6906 bbbd f7ea fb3d b749 5c3d 4a42 b73c
00000050: 8ef6 5cbc b776 d73d 31eb 88bd 627c 193c
00000060: 3206 cf3d ff0c bd3d 534a 783d 9797 c6bd
00000070: 0c44 ec3d 8f4a 973b 652b 87bd c159 573d
00000080: ebb3 123d ec8b c13d 68ec 883d a9c6 d83d
00000090: bdbb 393b 88ad 703d d511 f7bc 60fd 3abd
000000a0: 25de 033b 1986 ce3d a40a 0dbc d93e fbbd
000000b0: 5430 923d 2e88 43bd eab0 e2bd d7bf ae3c
000000c0: cb16 83bc 3b5c c93d 2952 e9bb 8c1b 04bc
000000d0: 21fe 343d 7be1 133c 677b c1bb abf7 e73d
000000e0: 2aaa 1cbc 6dd1 733d 7a44 06bd 0e57 d7ba
000000f0: 1699 49bd 2dfd 99bc b181 1bbd 3983 1abb
00000100: 3aae 7b3c 67af 8b3d 3608 e43c 8a1e cd3d
00000110: 1931 ef3d bc55 f13d b2d0 1abd 4e34 81bc
00000120: 3934 ae3d 5678 a43d bb71 e93d 0c18 8cbc
00000130: d10e 403d a156 e5bc 6e90 893c 14b7 b43b
00000140: 0dba 903c 2332 e7bd 3d86 123e 4202 50bd
00000150: ea25 1a3d 61df 023d 4d26 b2bd 6e84 ba3c
00000160: fc04 03be 68e7 0c3d 82f7 783d 4f28 073e
00000170: 40f1 393a 170b d53d 16af e2bc 2611 863d
00000180: bec0 c43d d30f a33d 5e98 a6bd b417 2e3c
00000190: f074 2a3d b451 97bc 0e87 ffbd 4886 9b3d
000001a0: 8745 2c3d 73b2 8ebc ef5f d5bd 6e7f 38bd
000001b0: b409 ebbd f11f 86bd 5846 16bc a2ae e8bd
000001c0: 4e1b f5bd d6a2 3f3c b59b bbbd d97f c43c
000001d0: 762d 943d 18fb 92bd 5576 0e3e a6d6 323d
000001e0: 9aac cb3c 9261 d0bd dc99 40bd 57fe c9bc
000001f0: fddf 9e3c d82c f9bc ef15 6d3b 7b1e aabb
00000200: f251 99bd a812 4b3d 1af7 ad3d 1b38 a5bb
00000210: b6b2 14bc 61cd eebd 02da cd3d ce8d 2e3d
00000220: 7a30 033e 3ba0 d9bd 3517 15be a739 a23d
00000230: be27 1c3b 9632 01bc 92e5 053c 668e bdbd
00000240: 1c21 12be 7e57 3bbd 5418 a0bd c7b7 1c3d
00000250: c2ef 8ebd bc12 b9bd 0dc5 33bd c832 49bb
00000260: 9661 aabd d657 babb 7a08 bebd ed9e 633d
00000270: b5ef df3d 402c 4bbc 8e73 b5bd f415 88bd
00000280: 6b2e ac3a a02a 933d ef43 d63c d4c9 23bd
00000290: 99f7 ebbd 9edc 56bd d659 75bc 4301 5fbd
000002a0: 0bf5 0dbc f95a 1e3e 7fde f93d 3cb0 d73c
000002b0: a6fc d8bd 58da 39bb 1920 48bd 7b96 9fbc
000002c0: 519b c23d 3a80 5fbd c18b bebc 88bf 943c
000002d0: 030e 9cbd 645a 953d 637e 8f3d 581f 233d
000002e0: 4bfc 77bd 5ca1 df3d 7fb7 bfbd 9d5d 98bd
000002f0: 8b62 bf3d 61b5 a23d 8470 d83d ec24 823d
00000300: b022 2bba 5c36 9d3d e4c1 743c 15f1 e63c
00000310: 754f 69bc a1ad e6bd 9ac5 58bd fe80 e5bd
00000320: 4647 b7bd 03a2 383d c48d 2ebd a6b4 c2bd
00000330: 3f28 353d a837 a23d 3f10 d5bc 61f6 95bc
00000340: f477 373d 8e89 0b3e ce1c 85bd 5554 65bd
00000350: 8724 c6bd 636f 37bd 2e04 d63d ede2 02bc
00000360: 4f6c aa3d a3ee 14ba 940f febc da04 ac3b
00000370: 3194 2ebd f4b4 043e 045c 83bc 9026 febc
00000380: a21f dbbd 77d5 32bb 941a b63c 1cb4 70bd
00000390: 3232 40bd e4da dfbd 9453 7fbd 85b1 75bd
000003a0: bc8b febd 983c 74bc 95fe 403d 5ac0 99bc
000003b0: 2a39 adbc c94c f83d 8500 e53d 5dc9 653d
000003c0: 9068 943d 9245 983d 5c19 31bd 007b 21bd
000003d0: 3d80 e1bd 922e 083d 7f81 b7bc 3d94 8bbd
000003e0: 8031 433d 4153 b6bd 2936 803d d632 dfbd
000003f0: 4c62 e2bc 1aa0 45bd 8c3f 3dbb 0c96 033e

downs.3.conv.bias f4 [10]
0.11533213 0.096674696 -0.08079835 -0.080045685 -0.07601113 0.12681782 -0.08563774 -0.049346004
-0.0779155 0.112430625
00000000: 4033 ec3d 62fd c53d 9b79 a5bd feee a3bd
00000010: b9ab 9bbd 88dc 013e d762 afbd 091f 4abd
00000020: 2992 9fbd 0742 e63d

downs.3.norm.weight f4 [10]
0.9974207 0.9703742 1.0239278 1.0201975 1.0054344 0.9934731 0.97567046 1.019405
1.0163873 1.015891
00000000: f756 7f3f 726a 783f 1110 833f d595 823f
00000010: 13b2 803f 4154 7e3f 8ac5 793f dd7b 823f
00000020: fb18 823f b708 823f

downs.3.norm.bias f4 [10]
-0.0073468066 -0.015541469 0.023204124 0.043720577 0.029987339 -0.023759563 -0.020441435 -0.004863609
0.038786355 0.044088148
00000000: 7bbd f0bb a5a1 7ebc 9316 be3c 5914 333d
00000010: 02a8 f53c 6aa3 c2bc cc74 a7bc e95e 9fbb
00000020: 71de 1e3d c695 343d

downs.3.norm.running_mean f4 [10]
0.28752694 0.11030242 -0.23914917 -0.05516655 -0.020541433 -0.021559387 -0.082816735 0.05867235
0.01241141 -0.07695685
00000000: bb36 933e 3ce6 e13d 85e3 74be 52f6 61bd
00000010: 8246 a8bc 509d b0bc d29b a9bd 6b52 703d
00000020: 3a59 4b3c 8e9b 9dbd

downs.3.norm.running_var f4 [10]
0.35108763 0.41245636 0.22290115 0.20471324 0.69274616 0.10033219 0.26242435 0.10783724
0.27847695 0.14931709
00000000: c2c1 b33e 7b2d d33e 3340 643e 59a0 513e
00000010: d057 313f f77a cd3d 7c5c 863e c5d9 dc3d
00000020: 8894 8e3e 94e6 183e
