Models/5_pytorch_workflow_unet.pth (torch, 81992 bytes, 143 tensors)

downs.0.conv.weight f4 [10, 1, 9]
0.12555724 -0.04507197 -0.13541317 0.010832944 -0.21337107 0.06372725 0.035207644 -0.07217113
-0.17203972 0.17863248 -0.03597155 -0.18122888 -0.08066308 0.06123843 -0.014070711 0.037464306
-0.25691086 -0.17564161 -0.30295134 -0.20828587 -0.24916986 0.26195467 -0.028135756 -0.3327404
0.14910544 -0.33233756 -0.17177905 -0.19439013 -0.0076537062 0.23899464 -0.2655587 -0.18290795
-0.2850238 0.20789945 0.035112128 -0.12053024 -0.1229071 0.31333002 0.05558461 -0.062392924
0.03631909 -0.19833729 0.08315574 0.16395877 -0.27426198 0.28213057 -0.069438815 0.18617459
-0.3126438 -0.118117735 0.12837394 0.31357172 0.09856191 -0.030917242 0.19741231 -0.31207773
-0.055434175 -0.109327205 -0.0623911 0.23783484 0.3253733 0.08103756 0.18263392 -0.23012684
0.104274035 -0.20717521 -0.032989606 -0.22593491 0.189245 -0.18850237 0.29752794 -0.30507782
0.32774952 -0.2418069 -0.13486867 -0.25241637 0.23298132 -0.32386765 -0.25800568 0.24791563
-0.35363454 -0.17409688 -0.026930774 0.20026755 0.25204626 -0.05408782 0.3128592 0.16970314
-0.18872765 -0.008904006
00000000: 1492 003e 639d 38bd c0a9 0abe a97c 313c
00000010: f27d 5abe 6f83 823d e435 103d 75ce 93bd
00000020: 2e2b 30be 6feb 363e e756 13bd 1094 39be
00000030: af32 a5bd 26d5 7a3d d788 66bc 2c74 193d
00000040: d289 83be 65db 33be 701c 9bbe e448 55be
00000050: 6226 7fbe ec1e 863e f57c e6bc f35c aabe
00000060: 19af 183e 2628 aabe d9e6 2fbe 350e 47be
00000070: f1cb fabb 03bb 743e 4ff7 87be 394c 3bbe
00000080: a4ee 91be 98e3 543e bcd1 0f3d 8fd8 f6bd
00000090: b8b6 fbbd cb6c a03e b0ac 633d b98f 7fbd
000000a0: 53c3 143d ee18 4bbe 8e4d aa3d cfe4 273e
000000b0: 116c 8cbe 6b73 903e f035 8ebd 8da4 3e3e
000000c0: d912 a0be b6e7 f1bd 7574 033e 798c a03e
000000d0: d4da c93d 2846 fdbc 7426 4a3e a7c8 9fbe
000000e0: f20e 63bd f1e6 dfbd cf8d 7fbd fa8a 733e
000000f0: 5497 a63e 05f7 a53d 6304 3b3e 5fa6 6bbe
00000100: a08d d53d bd25 54be 1c20 07bd 7b5b 67be
00000110: 71c9 413e c406 41be 9555 983e 2933 9cbe
00000120: c9ce a73e 3a9c 77be 031b 0abe b83c 81be
00000130: a892 6e3e fbd1 a5be 5219 84be 98dd 7d3e
00000140: 960f b5be 7446 32be ed9d dcbc f012 4d3e
00000150: 350c 813e 318b 5dbd 152f a03e a9c6 2d3e
00000160: d241 41be 1ce2 11bc

downs.0.conv.bias f4 [10]
-0.17620431 -0.24633111 0.20448902 -0.13001417 0.14517707 0.2571825 -0.20990786 -0.03883254
-0.06256332 -0.05767762
00000000: e76e 34be 393e 7cbe 9265 513e 6f22 05be
00000010: 4ca9 143e 6dad 833e 16f2 56be df0e 1fbd
00000020: 3321 80bd 5e3f 6cbd

downs.0.norm.weight f4 [10]
0.9855956 1.0053527 1.0108141 1.0240107 0.97529405 1.0041614 0.97034 0.98646885
0.9962132 0.9652117
00000000: fe4f 7c3f 66af 803f 5b62 813f c812 833f
00000010: dfac 793f 5c88 803f 3468 783f 3989 7c3f
00000020: d407 7f3f 1d18 773f

downs.0.norm.bias f4 [10]
-0.042235937 -0.05632905 0.035805482 -0.018204985 -0.057369847 0.039388612 0.018066589 -0.020305926
-0.05672598 -0.03207477
00000000: 97ff 2cbd 4ab9 66bd c5a8 123d 9f22 95bc
00000010: a5fc 6abd f455 213d 6200 943c 9d58 a6bc
00000020: 8059 68bd d660 03bd

downs.0.norm.running_mean f4 [10]
-2.2052946 -2.6294248 -5.920972 -3.0345473 0.09274181 2.679094 2.258233 -3.0571952
-3.9132068 2.3545713
00000000: 8c23 0dc0 7f48 28c0 9a78 bdc0 0636 42c0
00000010: 6bef bd3d 4776 2b40 e486 1040 16a9 43c0
00000020: fb71 7ac0 4cb1 1640

downs.0.norm.running_var f4 [10]
288.29248 406.60733 2499.1313 575.7789 12.011477 387.01575 453.39856 610.55457
1045.1002 423.57144
00000000: 7025 9043 bd4d cb43 1a32 1c45 d9f1 0f44
00000010: 032f 4041 0482 c143 04b3 e243 7ea3 1844
00000020: 35a3 8244 25c9 d343

downs.0.block.0.weight f4 [10, 1, 9]
0.12555724 -0.04507197 -0.13541317 0.010832944 -0.21337107 0.06372725 0.035207644 -0.07217113
-0.17203972 0.17863248 -0.03597155 -0.18122888 -0.08066308 0.06123843 -0.014070711 0.037464306
-0.25691086 -0.17564161 -0.30295134 -0.20828587 -0.24916986 0.26195467 -0.028135756 -0.3327404
0.14910544 -0.33233756 -0.17177905 -0.19439013 -0.0076537062 0.23899464 -0.2655587 -0.18290795
-0.2850238 0.20789945 0.035112128 -0.12053024 -0.1229071 0.31333002 0.05558461 -0.062392924
0.03631909 -0.19833729 0.08315574 0.16395877 -0.27426198 0.28213057 -0.069438815 0.18617459
-0.3126438 -0.118117735 0.12837394 0.31357172 0.09856191 -0.030917242 0.19741231 -0.31207773
-0.055434175 -0.109327205 -0.0623911 0.23783484 0.3253733 0.08103756 0.18263392 -0.23012684
0.104274035 -0.20717521 -0.032989606 -0.22593491 0.189245 -0.18850237 0.29752794 -0.30507782
0.32774952 -0.2418069 -0.13486867 -0.25241637 0.23298132 -0.32386765 -0.25800568 0.24791563
-0.35363454 -0.17409688 -0.026930774 0.20026755 0.25204626 -0.05408782 0.3128592 0.16970314
-0.18872765 -0.008904006
00000000: 1492 003e 639d 38bd c0a9 0abe a97c 313c
00000010: f27d 5abe 6f83 823d e435 103d 75ce 93bd
00000020: 2e2b 30be 6feb 363e e756 13bd 1094 39be
00000030: af32 a5bd 26d5 7a3d d788 66bc 2c74 193d
00000040: d289 83be 65db 33be 701c 9bbe e448 55be
00000050: 6226 7fbe ec1e 863e f57c e6bc f35c aabe
00000060: 19af 183e 2628 aabe d9e6 2fbe 350e 47be
00000070: f1cb fabb 03bb 743e 4ff7 87be 394c 3bbe
00000080: a4ee 91be 98e3 543e bcd1 0f3d 8fd8 f6bd
00000090: b8b6 fbbd cb6c a03e b0ac 633d b98f 7fbd
000000a0: 53c3 143d ee18 4bbe 8e4d aa3d cfe4 273e
000000b0: 116c 8cbe 6b73 903e f035 8ebd 8da4 3e3e
000000c0: d912 a0be b6e7 f1bd 7574 033e 798c a03e
000000d0: d4da c93d 2846 fdbc 7426 4a3e a7c8 9fbe
000000e0: f20e 63bd f1e6 dfbd cf8d 7fbd fa8a 733e
000000f0: 5497 a63e 05f7 a53d 6304 3b3e 5fa6 6bbe
00000100: a08d d53d bd25 54be 1c20 07bd 7b5b 67be
00000110: 71c9 413e c406 41be 9555 983e 2933 9cbe
00000120: c9ce a73e 3a9c 77be 031b 0abe b83c 81be
00000130: a892 6e3e fbd1 a5be 5219 84be 98dd 7d3e
00000140: 960f b5be 7446 32be ed9d dcbc f012 4d3e
00000150: 350c 813e 318b 5dbd 152f a03e a9c6 2d3e
00000160: d241 41be 1ce2 11bc

downs.0.block.0.bias f4 [10]
-0.17620431 -0.24633111 0.20448902 -0.13001417 0.14517707 0.2571825 -0.20990786 -0.03883254
-0.06256332 -0.05767762
00000000: e76e 34be 393e 7cbe 9265 513e 6f22 05be
00000010: 4ca9 143e 6dad 833e 16f2 56be df0e 1fbd
00000020: 3321 80bd 5e3f 6cbd

downs.0.block.1.weight f4 [10]
0.9855956 1.0053527 1.0108141 1.0240107 0.97529405 1.0041614 0.97034 0.98646885
0.9962132 0.9652117
00000000: fe4f 7c3f 66af 803f 5b62 813f c812 833f
00000010: dfac 793f 5c88 803f 3468 783f 3989 7c3f
00000020: d407 7f3f 1d18 773f

downs.0.block.1.bias f4 [10]
-0.042235937 -0.05632905 0.035805482 -0.018204985 -0.057369847 0.039388612 0.018066589 -0.020305926
-0.05672598 -0.03207477
00000000: 97ff 2cbd 4ab9 66bd c5a8 123d 9f22 95bc
00000010: a5fc 6abd f455 213d 6200 943c 9d58 a6bc
00000020: 8059 68bd d660 03bd

downs.0.block.1.running_mean f4 [10]
-2.2052946 -2.6294248 -5.920972 -3.0345473 0.09274181 2.679094 2.258233 -3.0571952
-3.9132068 2.3545713
00000000: 8c23 0dc0 7f48 28c0 9a78 bdc0 0636 42c0
00000010: 6bef bd3d 4776 2b40 e486 1040 16a9 43c0
00000020: fb71 7ac0 4cb1 1640

downs.0.block.1.running_var f4 [10]
288.29248 406.60733 2499.1313 575.7789 12.011477 387.01575 453.39856 610.55457
1045.1002 423.57144
00000000: 7025 9043 bd4d cb43 1a32 1c45 d9f1 0f44
00000010: 032f 4041 0482 c143 04b3 e243 7ea3 1844
00000020: 35a3 8244 25c9 d343

downs.1.conv.weight f4 [10, 10, 9]
0.015861792 -0.012099171 -0.028400907 -0.00506348 0.06931353 -0.02156638 -0.05455935 0.041946735
0.09639731 -0.004131305 0.09575535 -0.008662194 -0.02389164 -0.07245041 0.015779426 0.114695914
-0.01111236 -0.056540947 0.06055952 0.06573785 0.07575641 0.03001107 -0.06172419 -0.055512972
0.07340127 0.061429746 -0.050320625 0.017887892 -0.09113993 0.08573228 0.042610135 -0.047005605
0.04357585 0.017396186 0.04256015 -0.018799141 0.036157507 0.022103416 -0.008235834 0.044657018
0.064165674 0.053849876 0.10858724 0.121799886 0.133953 0.033395525 0.084257886 0.10482741
-0.0872667 -0.06715791 -0.02976778 0.084168255 -0.06468232 0.028915241 0.026534094 -0.050518773
-0.07982204 0.04789067 0.09525723 0.026626317 0.09370874 0.08430235 -0.007469374 -0.008537404
0.07518651 -0.014710069 0.10134529 -0.015798002 -0.0032604446 0.015304859 -0.082647584 0.06333613
0.088334925 0.013600408 -0.08492132 0.03511175 0.020667769 0.06525999 -0.059290335 0.0026021758
0.09390477 0.028772093 0.06453586 0.08526362 -0.04170357 0.015871434 0.031787466 0.064026244
-0.030312883 -0.06840836 0.037179925 0.029078854 0.020887552 0.042797945 -0.041769143 0.1264566
0.009704923 0.030898686 0.092624165 0.07456853 0.12632564 0.14745672 0.00495137 0.008498438
0.0502546 -0.013033657 0.05528962 -0.047112383 -0.0069373585 0.16579859 -0.0012954747 -0.014860424
0.04632995 0.14238016 0.0021871747 0.12093872 0.12986544 0.13033627 0.032274265 0.05156904
0.13010587 0.063046895 0.07377599 0.028775204 -0.04054516 -0.025903808 0.06520386 0.068572566
-0.02411682 -0.036318112 -0.028694468 -0.07187744 -0.027777236 -0.03163878 -0.031206891 -0.039711118
-0.044283357 0.16058439 0.016073307 -0.004061041 -0.037693683 -0.045638144 -0.00971351 -0.038538788
0.033107784 0.11414482 -0.03739642 -0.052199643 0.055285845 0.09114942 0.045534045 -0.012421941
0.071062505 0.09810203 0.08700495 0.022837969 -0.0041854065 0.030853607 0.0909628 -0.05075638
0.067954525 -0.020193456 -0.037916806 0.0737811 0.016091954 0.1202223 0.12602574 0.0173042
0.07812314 0.12980345 0.120139055 -0.009166123 0.04785903 0.1419765 0.016949544 0.07760144
-0.054975774 0.0470735 -0.012795953 -0.03325207 -0.024128126 0.006040815 0.03326819 -0.08491673
-0.018944645 0.0028452126 -0.08332609 -0.061226264 0.0027414635 -0.036889452 -0.0067758076 0.035568852
-0.096101336 -0.0006965867 -0.07391798 -0.072138056 0.078663416 0.071693406 -0.09740142 -0.052124564
0.023359187 -0.070448734 0.0014339108 -0.05544447 -0.08678301 -0.015965613 -0.08236317 0.019363055
-0.096605256 -0.005106031 -0.061486155 0.03001814 0.0505083 -0.05110104 -0.046736386 -0.10260887
0.13305065 0.016916005 0.02317005 -0.017098583 0.052113447 0.10358015 0.07457572 0.014347147
0.02955349 -0.056994714 0.006734651 0.10107994 0.02353698 -0.08206263 -0.08809784 0.03020985
0.014256263 0.04295889 0.09257688 -0.08905831 -0.017051084 -0.06269337 0.048464987 -0.06817387
0.09382465 -0.023487318 0.022557529 0.06564706 -0.02606951 -0.08392518 -0.107230306 -0.076427065
0.03363711 0.06668989 0.08084281 -0.009995584 0.08638841 0.07839223 -0.013241533 0.08277372
00000000: 97f0 813c 9a3b 46bc 05a9 e8bc 8deb a5bb
00000010: 41f4 8d3d faab b0bc a079 5fbd 57d0 2b3d
00000020: f46b c53d e65f 87bb 621b c43d e0eb 0dbc
00000030: 67b8 c3bc e160 94bd db43 813c b1e5 ea3d
00000040: 9e10 36bc 7b97 67bd 420d 783d 91a1 863d
00000050: 2d26 9b3d c7d9 f53c 81d2 7cbd 9261 63bd
00000060: 6853 963d c29d 7b3d 001d 4ebd a189 923c
00000070: 92a7 babd 6894 af3d f787 2e3d f388 40bd
00000080: 977c 323d 7282 8e3c 8d53 2e3d a800 9abc
00000090: e519 143d 3912 b53c 97ef 06bc 47ea 363d
000000a0: 4b69 833d b091 5c3d fd62 de3d 3872 f93d
000000b0: fa2a 093e bfc9 083d 668f ac3d c1af d63d
000000c0: e2b8 b2bd 168a 89bd 8fdb f3bc 6860 ac3d
000000d0: 2a78 84bd a8df ec3c 075e d93c c6ec 4ebd
000000e0: bd79 a3bd 0229 443d 3916 c33d 6f1f da3c
000000f0: 5eea bf3d b6a6 ac3d a7c1 f4bb 78e0 0bbc
00000100: 63fb 993d 8002 71bc 1f8e cf3d d06a 81bc
00000110: 2fad 55bb 3bc1 7a3c 2343 a9bd 5fb6 813d
00000120: f1e8 b43d 3fd4 5e3c 3beb adbd 57d1 0f3d
00000130: 744f a93c 08a7 853d 6cda 72bd 4489 2a3b
00000140: 2551 c03d 74b3 eb3c 612b 843d b19e ae3d
00000150: 5dd1 2abd cf04 823c 9333 023d 3120 833d
00000160: b952 f8bc af19 8cbd fa49 183d c736 ee3c
00000170: 5f1c ab3c e64c 2f3d 1f16 2bbd d77d 013e
00000180: 6601 1f3c 3e1f fd3c bdb1 bd3d 63b7 983d
00000190: 825b 013e e5fe 163e 1a3f a23b 083d 0b3c
000001a0: c4d7 4d3d 1f8b 55bc 5e77 623d eaf8 40bd
000001b0: c852 e3bb 1bc7 293e ebcc a9ba 2379 73bc
000001c0: 79c4 3d3d 1bcc 113e b456 0f3b b8ae f73d
000001d0: 72fb 043e df76 053e 0532 043d 0f3a 533d
000001e0: 793a 053e bb1e 813d de17 973d fab9 eb3c
000001f0: af12 26bd 3934 d4bc 9a89 853d c66f 8c3d
00000200: a390 c5bc 4dc2 14bd a910 ebbc 7b34 93bd
00000210: 168d e3bc aa97 01bd 98a5 ffbc 20a8 22bd
00000220: 7762 35bd 3c70 243e 2bac 833c 7b12 85bb
00000230: b164 1abd 10ef 3abd 6a25 1fbc d9da 1dbd
00000240: 079c 073d c2c4 e93d fd2c 19bd 4bcf 55bd
00000250: 6973 623d 8cac ba3d e881 3a3d 6685 4bbc
00000260: 3889 913d b8e9 c83d a72f b23d b116 bb3c
00000270: bc25 89bb b4c0 fc3c b44a ba3d ece5 4fbd
00000280: be2b 8b3d bf6c a5bc a74e 1bbd 8c1a 973d
00000290: 46d3 833c 1c37 f63d e40c 013e 8ac1 8d3c
000002a0: 06ff 9f3d 32eb 043e 770b f63d 822d 16bc
000002b0: d507 443d 4a62 113e c5d9 8a3c 81ed 9e3d
000002c0: 472e 61bd 24d0 403d 1ea6 51bc 5333 08bd
000002d0: 59a8 c5bc 07f2 c53b 3a44 083d d3e8 adbd
000002e0: cd31 9bbc bf76 3a3b dea6 aabd 64c8 7abd
000002f0: 20aa 333b 6519 17bd 9807 debb a5b0 113d
00000300: c7d0 c4bd 249b 36ba 4f62 97bd 1ebd 93bd
00000310: 491a a13d fed3 923d 657a c7bd 9180 55bd
00000320: c45b bf3c 6d47 90bd 10f2 bb3a be19 63bd
00000330: 4abb b1bd 51ca 82bc 06ae a8bd 459f 9e3c
00000340: fad8 c5bd 7e50 a7bb e8d8 7bbd 9ae8 f53c
00000350: cbe1 4e3d 534f 51bd a76e 3fbd 9924 d2bd
00000360: 6e3e 083e 6f93 8a3c 1ecf bd3c 5412 8cbc
00000370: e974 553d d421 d43d 28bb 983d 4c10 6b3c
00000380: 291a f23c 4a73 69bd 59ae dc3b 0003 cf3d
00000390: a0d0 c03c 7410 a8bd a46c b4bd a67a f73c
000003a0: 1a93 693c a9f5 2f3d f298 bd3d 3464 b6bd
000003b0: b7ae 8bbc 6265 80bd 3983 463d be9e 8bbd
000003c0: 2327 c03d 7a68 c0bc 91ca b83c f771 863d
000003d0: ba8f d5bc f7e0 abbd 909b dbbd cb85 9cbd
000003e0: 11c7 093d b694 883d ea90 a53d 85c4 23bc
000003f0: 68ec b03d 1b8c a03d 04f3 58bc 4585 a93d

downs.1.conv.bias f4 [10]
0.075424336 0.09338783 0.09161299 0.111630954 -0.035659045 0.0179178 -0.051730584 0.09934607
0.004825703 -0.015717082
00000000: 1378 9a3d 1e42 bf3d 979f bb3d c59e e43d
00000010: 380f 12bd 5ac8 923c 73e3 53bd f475 cb3d
00000020: ee20 9e3b 1cc1 80bc

downs.1.norm.weight f4 [10]
0.9914111 1.0316324 0.9851275 1.0021607 1.0114702 0.9846335 1.0071422 0.9780997
1.0503725 0.98963964
00000000: 1ecd 7d3f 880c 843f 5131 7c3f cd46 803f
00000010: db77 813f f110 7c3f 09ea 803f be64 7a3f
00000020: 9b72 863f 0659 7d3f

downs.1.norm.bias f4 [10]
-0.0028554858 -0.0032681646 0.017927682 -0.0017458603 0.01627431 -0.010428102 -0.065526 0.047212142
0.058098003 0.0135948565
00000000: 1a23 3bbb b42e 56bb 13dd 923c 5ad5 e4ba
00000010: b451 853c a1da 2abc 7f32 86bd 8561 413d
00000020: 2cf8 6d3d f6bc 5e3c

downs.1.norm.running_mean f4 [10]
0.19474031 0.30775866 0.021173947 -0.07578277 -0.14607461 0.06898232 0.065506764 -0.033474542
0.17297214 -0.07663403
00000000: 016a 473e 8b92 9d3e fc74 ad3c ff33 9bbd
00000010: 9594 15be 9a46 8d3d 6928 863d 9a1c 09bd
00000020: 9c1f 313e 4df2 9cbd

downs.1.norm.running_var f4 [10]
0.21151663 0.107133 0.11953238 0.074407 0.032404 0.28485253 0.09648007 0.38284603
0.030451955 0.14372523
00000000: d197 583e 8c68 db3d 64cd f43d b262 983d
00000010: 0fba 043d 31d8 913e 5897 c53d 6504 c43e
00000020: 6176 f93c b52c 133e

downs.1.block.0.weight f4 [10, 10, 9]
0.015861792 -0.012099171 -0.028400907 -0.00506348 0.06931353 -0.02156638 -0.05455935 0.041946735
0.09639731 -0.004131305 0.09575535 -0.008662194 -0.02389164 -0.07245041 0.015779426 0.114695914
-0.01111236 -0.056540947 0.06055952 0.06573785 0.07575641 0.03001107 -0.06172419 -0.055512972
0.07340127 0.061429746 -0.050320625 0.017887892 -0.09113993 0.08573228 0.042610135 -0.047005605
0.04357585 0.017396186 0.04256015 -0.018799141 0.036157507 0.022103416 -0.008235834 0.044657018
0.064165674 0.053849876 0.10858724 0.121799886 0.133953 0.033395525 0.084257886 0.10482741
-0.0872667 -0.06715791 -0.02976778 0.084168255 -0.06468232 0.028915241 0.026534094 -0.050518773
-0.07982204 0.04789067 0.09525723 0.026626317 0.09370874 0.08430235 -0.007469374 -0.008537404
0.07518651 -0.014710069 0.10134529 -0.015798002 -0.0032604446 0.015304859 -0.082647584 0.06333613
0.088334925 0.013600408 -0.08492132 0.03511175 0.020667769 0.06525999 -0.059290335 0.0026021758
0.09390477 0.028772093 0.06453586 0.08526362 -0.04170357 0.015871434 0.031787466 0.064026244
-0.030312883 -0.06840836 0.037179925 0.029078854 0.020887552 0.042797945 -0.041769143 0.1264566
0.009704923 0.030898686 0.092624165 0.07456853 0.12632564 0.14745672 0.00495137 0.008498438
0.0502546 -0.013033657 0.05528962 -0.047112383 -0.0069373585 0.16579859 -0.0012954747 -0.014860424
0.04632995 0.14238016 0.0021871747 0.12093872 0.12986544 0.13033627 0.032274265 0.05156904
0.13010587 0.063046895 0.07377599 0.028775204 -0.04054516 -0.025903808 0.06520386 0.068572566
-0.02411682 -0.036318112 -0.028694468 -0.07187744 -0.027777236 -0.03163878 -0.031206891 -0.039711118
-0.044283357 0.16058439 0.016073307 -0.004061041 -0.037693683 -0.045638144 -0.00971351 -0.038538788
0.033107784 0.11414482 -0.03739642 -0.052199643 0.055285845 0.09114942 0.045534045 -0.012421941
0.071062505 0.09810203 0.08700495 0.022837969 -0.0041854065 0.030853607 0.0909628 -0.05075638
0.067954525 -0.020193456 -0.037916806 0.0737811 0.016091954 0.1202223 0.12602574 0.0173042
0.07812314 0.12980345 0.120139055 -0.009166123 0.04785903 0.1419765 0.016949544 0.07760144
-0.054975774 0.0470735 -0.012795953 -0.03325207 -0.024128126 0.006040815 0.03326819 -0.08491673
-0.018944645 0.0028452126 -0.08332609 -0.061226264 0.0027414635 -0.036889452 -0.0067758076 0.035568852
-0.096101336 -0.0006965867 -0.07391798 -0.072138056 0.078663416 0.071693406 -0.09740142 -0.052124564
0.023359187 -0.070448734 0.0014339108 -0.05544447 -0.08678301 -0.015965613 -0.08236317 0.019363055
-0.096605256 -0.005106031 -0.061486155 0.03001814 0.0505083 -0.05110104 -0.046736386 -0.10260887
0.13305065 0.016916005 0.02317005 -0.017098583 0.052113447 0.10358015 0.07457572 0.014347147
0.02955349 -0.056994714 0.006734651 0.10107994 0.02353698 -0.08206263 -0.08809784 0.03020985
0.014256263 0.04295889 0.09257688 -0.08905831 -0.017051084 -0.06269337 0.048464987 -0.06817387
0.09382465 -0.023487318 0.022557529 0.06564706 -0.02606951 -0.08392518 -0.107230306 -0.076427065
0.03363711 0.06668989 0.08084281 -0.009995584 0.08638841 0.07839223 -0.013241533 0.08277372
00000000: 97f0 813c 9a3b 46bc 05a9 e8bc 8deb a5bb
00000010: 41f4 8d3d faab b0bc a079 5fbd 57d0 2b3d
00000020: f46b c53d e65f 87bb 621b c43d e0eb 0dbc
00000030: 67b8 c3bc e160 94bd db43 813c b1e5 ea3d
00000040: 9e10 36bc 7b97 67bd 420d 783d 91a1 863d
00000050: 2d26 9b3d c7d9 f53c 81d2 7cbd 9261 63bd
00000060: 6853 963d c29d 7b3d 001d 4ebd a189 923c
00000070: 92a7 babd 6894 af3d f787 2e3d f388 40bd
00000080: 977c 323d 7282 8e3c 8d53 2e3d a800 9abc
00000090: e519 143d 3912 b53c 97ef 06bc 47ea 363d
000000a0: 4b69 833d b091 5c3d fd62 de3d 3872 f93d
000000b0: fa2a 093e bfc9 083d 668f ac3d c1af d63d
000000c0: e2b8 b2bd 168a 89bd 8fdb f3bc 6860 ac3d
000000d0: 2a78 84bd a8df ec3c 075e d93c c6ec 4ebd
000000e0: bd79 a3bd 0229 443d 3916 c33d 6f1f da3c
000000f0: 5eea bf3d b6a6 ac3d a7c1 f4bb 78e0 0bbc
00000100: 63fb 993d 8002 71bc 1f8e cf3d d06a 81bc
00000110: 2fad 55bb 3bc1 7a3c 2343 a9bd 5fb6 813d
00000120: f1e8 b43d 3fd4 5e3c 3beb adbd 57d1 0f3d
00000130: 744f a93c 08a7 853d 6cda 72bd 4489 2a3b
00000140: 2551 c03d 74b3 eb3c 612b 843d b19e ae3d
00000150: 5dd1 2abd cf04 823c 9333 023d 3120 833d
00000160: b952 f8bc af19 8cbd fa49 183d c736 ee3c
00000170: 5f1c ab3c e64c 2f3d 1f16 2bbd d77d 013e
00000180: 6601 1f3c 3e1f fd3c bdb1 bd3d 63b7 983d
00000190: 825b 013e e5fe 163e 1a3f a23b 083d 0b3c
000001a0: c4d7 4d3d 1f8b 55bc 5e77 623d eaf8 40bd
000001b0: c852 e3bb 1bc7 293e ebcc a9ba 2379 73bc
000001c0: 79c4 3d3d 1bcc 113e b456 0f3b b8ae f73d
000001d0: 72fb 043e df76 053e 0532 043d 0f3a 533d
000001e0: 793a 053e bb1e 813d de17 973d fab9 eb3c
000001f0: af12 26bd 3934 d4bc 9a89 853d c66f 8c3d
00000200: a390 c5bc 4dc2 14bd a910 ebbc 7b34 93bd
00000210: 168d e3bc aa97 01bd 98a5 ffbc 20a8 22bd
00000220: 7762 35bd 3c70 243e 2bac 833c 7b12 85bb
00000230: b164 1abd 10ef 3abd 6a25 1fbc d9da 1dbd
00000240: 079c 073d c2c4 e93d fd2c 19bd 4bcf 55bd
00000250: 6973 623d 8cac ba3d e881 3a3d 6685 4bbc
00000260: 3889 913d b8e9 c83d a72f b23d b116 bb3c
00000270: bc25 89bb b4c0 fc3c b44a ba3d ece5 4fbd
00000280: be2b 8b3d bf6c a5bc a74e 1bbd 8c1a 973d
00000290: 46d3 833c 1c37 f63d e40c 013e 8ac1 8d3c
000002a0: 06ff 9f3d 32eb 043e 770b f63d 822d 16bc
000002b0: d507 443d 4a62 113e c5d9 8a3c 81ed 9e3d
000002c0: 472e 61bd 24d0 403d 1ea6 51bc 5333 08bd
000002d0: 59a8 c5bc 07f2 c53b 3a44 083d d3e8 adbd
000002e0: cd31 9bbc bf76 3a3b dea6 aabd 64c8 7abd
000002f0: 20aa 333b 6519 17bd 9807 debb a5b0 113d
00000300: c7d0 c4bd 249b 36ba 4f62 97bd 1ebd 93bd
00000310: 491a a13d fed3 923d 657a c7bd 9180 55bd
00000320: c45b bf3c 6d47 90bd 10f2 bb3a be19 63bd
00000330: 4abb b1bd 51ca 82bc 06ae a8bd 459f 9e3c
00000340: fad8 c5bd 7e50 a7bb e8d8 7bbd 9ae8 f53c
00000350: cbe1 4e3d 534f 51bd a76e 3fbd 9924 d2bd
00000360: 6e3e 083e 6f93 8a3c 1ecf bd3c 5412 8cbc
00000370: e974 553d d421 d43d 28bb 983d 4c10 6b3c
00000380: 291a f23c 4a73 69bd 59ae dc3b 0003 cf3d
00000390: a0d0 c03c 7410 a8bd a46c b4bd a67a f73c
000003a0: 1a93 693c a9f5 2f3d f298 bd3d 3464 b6bd
000003b0: b7ae 8bbc 6265 80bd 3983 463d be9e 8bbd
000003c0: 2327 c03d 7a68 c0bc 91ca b83c f771 863d
000003d0: ba8f d5bc f7e0 abbd 909b dbbd cb85 9cbd
000003e0: 11c7 093d b694 883d ea90 a53d 85c4 23bc
000003f0: 68ec b03d 1b8c a03d 04f3 58bc 4585 a93d

downs.1.block.0.bias f4 [10]
0.075424336 0.09338783 0.09161299 0.111630954 -0.035659045 0.0179178 -0.051730584 0.09934607
0.004825703 -0.015717082
00000000: 1378 9a3d 1e42 bf3d 979f bb3d c59e e43d
00000010: 380f 12bd 5ac8 923c 73e3 53bd f475 cb3d
00000020: ee20 9e3b 1cc1 80bc

downs.1.block.1.weight f4 [10]
0.9914111 1.0316324 0.9851275 1.0021607 1.0114702 0.9846335 1.0071422 0.9780997
1.0503725 0.98963964
00000000: 1ecd 7d3f 880c 843f 5131 7c3f cd46 803f
00000010: db77 813f f110 7c3f 09ea 803f be64 7a3f
00000020: 9b72 863f 0659 7d3f

downs.1.block.1.bias f4 [10]
-0.0028554858 -0.0032681646 0.017927682 -0.0017458603 0.01627431 -0.010428102 -0.065526 0.047212142
0.058098003 0.0135948565
00000000: 1a23 3bbb b42e 56bb 13dd 923c 5ad5 e4ba
00000010: b451 853c a1da 2abc 7f32 86bd 8561 413d
00000020: 2cf8 6d3d f6bc 5e3c

downs.1.block.1.running_mean f4 [10]
0.19474031 0.30775866 0.021173947 -0.07578277 -0.14607461 0.06898232 0.065506764 -0.033474542
0.17297214 -0.07663403
00000000: 016a 473e 8b92 9d3e fc74 ad3c ff33 9bbd
00000010: 9594 15be 9a46 8d3d 6928 863d 9a1c 09bd
00000020: 9c1f 313e 4df2 9cbd

downs.1.block.1.running_var f4 [10]
0.21151663 0.107133 0.11953238 0.074407 0.032404 0.28485253 0.09648007 0.38284603
0.030451955 0.14372523
00000000: d197 583e 8c68 db3d 64cd f43d b262 983d
00000010: 0fba 043d 31d8 913e 5897 c53d 6504 c43e
00000020: 6176 f93c b52c 133e

downs.2.conv.weight f4 [10, 10, 6]
0.07646903 -0.072042875 -0.09200796 0.06917938 -0.054241154 0.11202141 0.05629367 0.02158501
-0.15849414 -0.062110472 -0.027120596 -0.050514206 -0.114417404 -0.05698523 0.08128944 -0.10451886
-0.08314478 -0.114466965 -0.009218805 -0.08415944 0.03008359 0.00899018 0.0528301 0.070756674
0.017435841 -0.05600721 0.13694257 0.0673643 -0.0023092763 0.12468329 0.138957 0.04257423
-0.03328609 -0.10834728 0.06430423 -0.0071456963 -0.0571572 -0.09135357 0.09234017 0.107848465
-0.0842526 -0.069757506 0.00403076 0.061188348 -0.01100848 -0.056390237 0.054071 -0.00086129934
-0.034203656 -0.03408452 -0.072612695 -0.059443504 -0.095424555 -0.04584663 -0.024551738 0.13239212
0.08141102 -0.09688096 0.014729128 -0.0652387 -0.07626534 0.017802825 -0.09689911 -0.024506774
0.07890995 0.15601677 -0.047603376 0.09368544 -0.088174894 0.04063099 0.030202365 -0.042327993
0.0018491453 -0.047761522 -0.012942755 0.08070416 -0.026705781 0.05877432 0.12735848 0.0490139
0.03928957 -0.00014345642 -0.054052245 0.052442428 -0.05539872 -0.12850803 0.025855925 0.017049802
-0.077183366 0.049796913 -0.038947728 -0.03897767 0.019882368 -0.06396111 0.088194594 0.024909431
-0.075482674 -0.056315243 0.109036036 0.12359201 -0.0100408625 0.041073307 -0.089189 -0.100518346
-0.023690995 -0.006462407 -0.105457425 0.1263281 0.03133086 -0.081122436 -0.09462383 -0.15182886
0.058075476 -0.061452832 0.031656258 0.13059655 -0.00452024 -0.032155525 -0.038197212 -0.009833214
0.100563325 0.054780275 -0.090166174 0.09267066 0.004198608 0.015357889 -0.11971716 -0.07759316
0.06344192 0.11544602 -0.031294197 -0.11916608 0.003960463 -0.044544104 0.014945524 0.033748332
-0.08266443 0.031063244 0.044971 0.010751195 0.06544343 -0.026044762 -0.023143655 -0.032610092
0.10668331 -0.03608104 -0.059637263 0.11500304 -0.029897682 0.07137918 -0.016832136 0.038207617
-0.04697563 -0.036469694 0.08698777 0.08541625 0.11358985 0.073016234 0.07711972 0.107730344
-0.04680729 0.14644241 -0.004433062 0.047559023 0.016227448 -0.096123606 -0.08502212 -0.07088836
-0.09632479 0.113204435 0.03874841 0.09177441 -0.016877161 -0.00022717658 -0.06399045 0.04537332
0.058144372 -0.05547592 0.024410527 -0.00038555163 0.023050293 0.13834591 -0.09727486 -0.062314402
0.0151385255 0.10114148 -0.07249577 0.07257266 0.13045187 0.07241879 -0.06257389 0.035371833
0.14271793 -0.074441746 0.1096718 0.09007943 0.11620332 -0.09933868 -0.038013812 -0.08126088
0.009273968 0.022824494 -0.1327027 0.0023351351 -0.0865604 -0.06878969 0.065932155 0.050948106
-0.01082009 -0.07396605 -0.12999761 0.078041755 -0.087145336 0.00036863642 0.0385314 -0.12089426
0.027153948 -0.036643717 0.13237794 0.13007756 -0.03314368 -0.020227432 0.0976364 0.037158716
-0.13038412 -0.038790207 0.007348545 0.08933906 0.036945324 0.07933687 0.04777946 0.0030559776
0.12729773 0.1362606 0.008943242 0.072999105 0.05387637 0.04727148 -0.036861356 0.055944085
-0.06365083 0.077748835 -0.017341787 -0.107420854 0.04910425 0.004624444 -0.15558821 -0.028789373
-0.14406347 0.0064063314 -0.12812822 -0.11077002 0.07164077 -0.15084565 0.05999407 -0.019444654
00000000: cb9b 9c3d 378b 93bd ab6e bcbd ebad 8d3d
00000010: f92b 5ebd 7b6b e53d 3194 663d 0cd3 b03c
00000020: 4a4c 22be 8d67 7ebd 032c debc fce7 4ebd
00000030: ac53 eabd 5869 69bd 147b a63d fc0d d6bd
00000040: cf47 aabd a86d eabd 780a 17bc c95b acbd
00000050: dc71 f63c 8c4b 133c 6064 583d e0e8 903d
00000060: 9cd5 8e3c d167 65bd ac3a 0c3e 4bf6 893d
00000070: 3a57 17bb f459 ff3d be4a 0e3e 5162 2e3d
00000080: ff56 08bd 2ee5 ddbd f0b1 833d 7226 eabb
00000090: ab1d 6abd 9517 bbbd d81c bd3d a8df dc3d
000000a0: a18c acbd 06dd 8ebd 7714 843b a2a0 7a3d
000000b0: e95c 34bc 73f9 66bd 8e79 5d3d d2c8 61ba
000000c0: 2219 0cbd 369c 0bbd f7b5 94bd 087b 73bd
000000d0: f36d c3bd adc9 3bbd ba20 c9bc cd91 073e
000000e0: d2ba a63d 8669 c6bd 7152 713c de9b 85bd
000000f0: 0131 9cbd 3bd7 913c 0a73 c6bd 6ec2 c8bc
00000100: 8a9b a13d dcc2 1f3e c2fb 42bd 27de bf3d
00000110: 0a95 b4bd ae6c 263d f36a f73c 1e60 2dbd
00000120: 055f f23a 96a1 43bd d90d 54bc 3948 a53d
00000130: 15c6 dabc 57bd 703d 436a 023e cdc2 483d
00000140: 1aee 203d ca6c 16b9 e365 5dbd dfcd 563d
00000150: c5e9 62bd 9c97 03be cecf d33c 07ac 8b3c
00000160: 5012 9ebd d9f7 4b3d a787 1fbd 0da7 1fbd
00000170: 59e0 a23c 0bfe 82bd 5e9f b43d dd0e cc3c
00000180: a996 9abd d0aa 66bd 494e df3d cf1d fd3d
00000190: 6e82 24bc 7c3c 283d b9a8 b6bd 90dc cdbd
000001a0: 9e13 c2bc 99c2 d3bb 10fa d7bd 275c 013e
000001b0: ca54 003d 8523 a6bd 23ca c1bd 0679 1bbe
000001c0: 8de0 6d3d f7b5 7bbd fea9 013d 1abb 053e
000001d0: 851e 94bb 83b5 03bd ae74 1cbd 7d1b 21bc
000001e0: 25f4 cd3d 4861 603d 0ba9 b8bd 1dca bd3d
000001f0: 7a94 893b a89f 7b3c 452e f5bd 2ae9 9ebd
00000200: d6ed 813d f76e ec3d 582e 00bd 590d f4bd
00000210: c6c6 813b e173 36bd 12de 743c b13b 0a3d
00000220: f84b a9bd 5878 fe3c 8333 383d c825 303c
00000230: 3407 863d d35b d5bc c397 bdbc 2992 05bd
00000240: c77c da3d b6c9 13bd 3446 74bd b786 eb3d
00000250: fceb f4bc 3f2f 923d 8ce3 89bc 977f 1c3d
00000260: 8569 40bd 3f61 15bd a526 b23d b7ee ae3d
00000270: cca1 e83d 8989 953d f2f0 9d3d baa1 dc3d
00000280: 00b9 3fbd 00f5 153e 3843 91bb 40cd 423d
00000290: 6def 843c 74dc c4bd 1420 aebd eb2d 91bd
000002a0: ee45 c5bd bad7 e73d a7b6 1e3d 39f4 bb3d
000002b0: f941 8abc 4036 6eb9 6d0d 83bd 60d9 393d
000002c0: cb28 6e3d b83a 63bd 96f8 c73c dd23 cab9
000002d0: f8d3 bc3c 8daa 0d3e 0b38 c7bd 633d 7fbd
000002e0: 9407 783c 4423 cf3d aa78 94bd faa0 943d
000002f0: 2d95 053e 4d50 943d bd26 80bd 0ee2 103d
00000300: a624 123e ea74 98bd 9c9b e03d 907b b83d
00000310: 02fc ed3d 1472 cbbd 5fb4 1bbd 1b6c a6bd
00000320: d7f1 173c 6ffa ba3c 37e3 07be 1109 193b
00000330: 9446 b1bd 9ce1 8cbd 7007 873d f6ae 503d
00000340: bf46 31bc 837b 97bd 181e 05be 5bd4 9f3d
00000350: 4179 b2bd 8b45 c139 1ad3 1d3d 6997 f7bd
00000360: f571 de3c b917 16bd 158e 073e 0d33 053e
00000370: abc1 07bd 00b4 a5bc 98f5 c73d bd33 183d
00000380: 6a83 05be 7be2 1ebd 10cc f03b 66f7 b63d
00000390: fb53 173d 5e7b a23d 65b4 433d cc46 483b
000003a0: 565a 023e e687 0b3e ad86 123c 8e80 953d
000003b0: 78ad 5c3d bd9f 413d effb 16bd a025 653d
000003c0: 5e5b 82bd c83a 9f3d 5d10 8ebc 77ff dbbd
000003d0: 8a21 493d a688 973b 8452 1fbe b1d7 ebbc
000003e0: 6085 13be 34ec d13b 0b34 03be 64db e2bd
000003f0: 65b8 923d 4877 1abe 58bc 753d 654a 9fbc

downs.2.conv.bias f4 [10]
-0.01697109 -0.06395813 0.11046808 0.123604685 0.005048943 0.05422894 -0.033886787 -0.093006454
0.06299853 -0.026520368
00000000: f506 8bbc 7bfc 82bd 173d e23d 7424 fd3d
00000010: 9b71 a53b 2a1f 5e3d dfcc 0abd 2b7a bebd
00000020: 6005 813d 3e41 d9bc

downs.2.norm.weight f4 [10]
1.0065024 1.0266637 1.001403 1.0080651 1.0332966 0.98895884 0.96016353 0.9520494
1.0253527 1.0198866
00000000: 12d5 803f b769 833f f92d 803f 4708 813f
00000010: 1043 843f 682c 7d3f 47cd 753f 82b9 733f
00000020: c23e 833f a58b 823f

downs.2.norm.bias f4 [10]
-0.013040439 0.02356429 -0.07265241 0.038130593 0.04009168 0.029077228 0.0007041467 -0.025974093
0.034848157 -0.05184993
00000000: 91a7 55bc e609 c13c c9ca 94bd d32e 1c3d
00000010: 2c37 243d 5e33 ee3c 7c96 383a 9fc7 d4bc
00000020: f1bc 0e3d 9860 54bd

downs.2.norm.running_mean f4 [10]
-0.10972945 -0.12351597 0.1586506 0.26342604 -0.09578221 0.06415334 -0.006341406 0.021828374
0.019210484 -0.06453541
00000000: d5b9 e0bd f1f5 fcbd 4e75 223e c7df 863e
00000010: 7729 c4bd d462 833d 92cb cfbb 6bd1 b23c
00000020: 4e5f 9d3c 242b 84bd

downs.2.norm.running_var f4 [10]
0.085500374 0.16018914 0.13155448 0.16180435 0.11332535 0.44651002 0.94659 0.16913734
0.54196167 0.12442261
00000000: d21a af3d 9f08 243e 38b6 063e 0ab0 253e
00000010: 1f17 e83d f69c e43e b953 723f 5732 2d3e
00000020: 00be 0a3f 48d1 fe3d

downs.2.block.0.weight f4 [10, 10, 6]
0.07646903 -0.072042875 -0.09200796 0.06917938 -0.054241154 0.11202141 0.05629367 0.02158501
-0.15849414 -0.062110472 -0.027120596 -0.050514206 -0.114417404 -0.05698523 0.08128944 -0.10451886
-0.08314478 -0.114466965 -0.009218805 -0.08415944 0.03008359 0.00899018 0.0528301 0.070756674
0.017435841 -0.05600721 0.13694257 0.0673643 -0.0023092763 0.12468329 0.138957 0.04257423
-0.03328609 -0.10834728 0.06430423 -0.0071456963 -0.0571572 -0.09135357 0.09234017 0.107848465
-0.0842526 -0.069757506 0.00403076 0.061188348 -0.01100848 -0.056390237 0.054071 -0.00086129934
-0.034203656 -0.03408452 -0.072612695 -0.059443504 -0.095424555 -0.04584663 -0.024551738 0.13239212
0.08141102 -0.09688096 0.014729128 -0.0652387 -0.07626534 0.017802825 -0.09689911 -0.024506774
0.07890995 0.15601677 -0.047603376 0.09368544 -0.088174894 0.04063099 0.030202365 -0.042327993
0.0018491453 -0.047761522 -0.012942755 0.08070416 -0.026705781 0.05877432 0.12735848 0.0490139
0.03928957 -0.00014345642 -0.054052245 0.052442428 -0.05539872 -0.12850803 0.025855925 0.017049802
-0.077183366 0.049796913 -0.038947728 -0.03897767 0.019882368 -0.06396111 0.088194594 0.024909431
-0.075482674 -0.056315243 0.109036036 0.12359201 -0.0100408625 0.041073307 -0.089189 -0.100518346
-0.023690995 -0.006462407 -0.105457425 0.1263281 0.03133086 -0.081122436 -0.09462383 -0.15182886
0.058075476 -0.061452832 0.031656258 0.13059655 -0.00452024 -0.032155525 -0.038197212 -0.009833214
0.100563325 0.054780275 -0.090166174 0.09267066 0.004198608 0.015357889 -0.11971716 -0.07759316
0.06344192 0.11544602 -0.031294197 -0.11916608 0.003960463 -0.044544104 0.014945524 0.033748332
-0.08266443 0.031063244 0.044971 0.010751195 0.06544343 -0.026044762 -0.023143655 -0.032610092
0.10668331 -0.03608104 -0.059637263 0.11500304 -0.029897682 0.07137918 -0.016832136 0.038207617
-0.04697563 -0.036469694 0.08698777 0.08541625 0.11358985 0.073016234 0.07711972 0.107730344
-0.04680729 0.14644241 -0.004433062 0.047559023 0.016227448 -0.096123606 -0.08502212 -0.07088836
-0.09632479 0.113204435 0.03874841 0.09177441 -0.016877161 -0.00022717658 -0.06399045 0.04537332
0.058144372 -0.05547592 0.024410527 -0.00038555163 0.023050293 0.13834591 -0.09727486 -0.062314402
0.0151385255 0.10114148 -0.07249577 0.07257266 0.13045187 0.07241879 -0.06257389 0.035371833
0.14271793 -0.074441746 0.1096718 0.09007943 0.11620332 -0.09933868 -0.038013812 -0.08126088
0.009273968 0.022824494 -0.1327027 0.0023351351 -0.0865604 -0.06878969 0.065932155 0.050948106
-0.01082009 -0.07396605 -0.12999761 0.078041755 -0.087145336 0.00036863642 0.0385314 -0.12089426
0.027153948 -0.036643717 0.13237794 0.13007756 -0.03314368 -0.020227432 0.0976364 0.037158716
-0.13038412 -0.038790207 0.007348545 0.08933906 0.036945324 0.07933687 0.04777946 0.0030559776
0.12729773 0.1362606 0.008943242 0.072999105 0.05387637 0.04727148 -0.036861356 0.055944085
-0.06365083 0.077748835 -0.017341787 -0.107420854 0.04910425 0.004624444 -0.15558821 -0.028789373
-0.14406347 0.0064063314 -0.12812822 -0.11077002 0.07164077 -0.15084565 0.05999407 -0.019444654
00000000: cb9b 9c3d 378b 93bd ab6e bcbd ebad 8d3d
00000010: f92b 5ebd 7b6b e53d 3194 663d 0cd3 b03c
00000020: 4a4c 22be 8d67 7ebd 032c debc fce7 4ebd
00000030: ac53 eabd 5869 69bd 147b a63d fc0d d6bd
00000040: cf47 aabd a86d eabd 780a 17bc c95b acbd
00000050: dc71 f63c 8c4b 133c 6064 583d e0e8 903d
00000060: 9cd5 8e3c d167 65bd ac3a 0c3e 4bf6 893d
00000070: 3a57 17bb f459 ff3d be4a 0e3e 5162 2e3d
00000080: ff56 08bd 2ee5 ddbd f0b1 833d 7226 eabb
00000090: ab1d 6abd 9517 bbbd d81c bd3d a8df dc3d
000000a0: a18c acbd 06dd 8ebd 7714 843b a2a0 7a3d
000000b0: e95c 34bc 73f9 66bd 8e79 5d3d d2c8 61ba
000000c0: 2219 0cbd 369c 0bbd f7b5 94bd 087b 73bd
000000d0: f36d c3bd adc9 3bbd ba20 c9bc cd91 073e
000000e0: d2ba a63d 8669 c6bd 7152 713c de9b 85bd
000000f0: 0131 9cbd 3bd7 913c 0a73 c6bd 6ec2 c8bc
00000100: 8a9b a13d dcc2 1f3e c2fb 42bd 27de bf3d
00000110: 0a95 b4bd ae6c 263d f36a f73c 1e60 2dbd
00000120: 055f f23a 96a1 43bd d90d 54bc 3948 a53d
00000130: 15c6 dabc 57bd 703d 436a 023e cdc2 483d
00000140: 1aee 203d ca6c 16b9 e365 5dbd dfcd 563d
00000150: c5e9 62bd 9c97 03be cecf d33c 07ac 8b3c
00000160: 5012 9ebd d9f7 4b3d a787 1fbd 0da7 1fbd
00000170: 59e0 a23c 0bfe 82bd 5e9f b43d dd0e cc3c
00000180: a996 9abd d0aa 66bd 494e df3d cf1d fd3d
00000190: 6e82 24bc 7c3c 283d b9a8 b6bd 90dc cdbd
000001a0: 9e13 c2bc 99c2 d3bb 10fa d7bd 275c 013e
000001b0: ca54 003d 8523 a6bd 23ca c1bd 0679 1bbe
000001c0: 8de0 6d3d f7b5 7bbd fea9 013d 1abb 053e
000001d0: 851e 94bb 83b5 03bd ae74 1cbd 7d1b 21bc
000001e0: 25f4 cd3d 4861 603d 0ba9 b8bd 1dca bd3d
000001f0: 7a94 893b a89f 7b3c 452e f5bd 2ae9 9ebd
00000200: d6ed 813d f76e ec3d 582e 00bd 590d f4bd
00000210: c6c6 813b e173 36bd 12de 743c b13b 0a3d
00000220: f84b a9bd 5878 fe3c 8333 383d c825 303c
00000230: 3407 863d d35b d5bc c397 bdbc 2992 05bd
00000240: c77c da3d b6c9 13bd 3446 74bd b786 eb3d
00000250: fceb f4bc 3f2f 923d 8ce3 89bc 977f 1c3d
00000260: 8569 40bd 3f61 15bd a526 b23d b7ee ae3d
00000270: cca1 e83d 8989 953d f2f0 9d3d baa1 dc3d
00000280: 00b9 3fbd 00f5 153e 3843 91bb 40cd 423d
00000290: 6def 843c 74dc c4bd 1420 aebd eb2d 91bd
000002a0: ee45 c5bd bad7 e73d a7b6 1e3d 39f4 bb3d
000002b0: f941 8abc 4036 6eb9 6d0d 83bd 60d9 393d
000002c0: cb28 6e3d b83a 63bd 96f8 c73c dd23 cab9
000002d0: f8d3 bc3c 8daa 0d3e 0b38 c7bd 633d 7fbd
000002e0: 9407 783c 4423 cf3d aa78 94bd faa0 943d
000002f0: 2d95 053e 4d50 943d bd26 80bd 0ee2 103d
00000300: a624 123e ea74 98bd 9c9b e03d 907b b83d
00000310: 02fc ed3d 1472 cbbd 5fb4 1bbd 1b6c a6bd
00000320: d7f1 173c 6ffa ba3c 37e3 07be 1109 193b
00000330: 9446 b1bd 9ce1 8cbd 7007 873d f6ae 503d
00000340: bf46 31bc 837b 97bd 181e 05be 5bd4 9f3d
00000350: 4179 b2bd 8b45 c139 1ad3 1d3d 6997 f7bd
00000360: f571 de3c b917 16bd 158e 073e 0d33 053e
00000370: abc1 07bd 00b4 a5bc 98f5 c73d bd33 183d
00000380: 6a83 05be 7be2 1ebd 10cc f03b 66f7 b63d
00000390: fb53 173d 5e7b a23d 65b4 433d cc46 483b
000003a0: 565a 023e e687 0b3e ad86 123c 8e80 953d
000003b0: 78ad 5c3d bd9f 413d effb 16bd a025 653d
000003c0: 5e5b 82bd c83a 9f3d 5d10 8ebc 77ff dbbd
000003d0: 8a21 493d a688 973b 8452 1fbe b1d7 ebbc
000003e0: 6085 13be 34ec d13b 0b34 03be 64db e2bd
000003f0: 65b8 923d 4877 1abe 58bc 753d 654a 9fbc

downs.2.block.0.bias f4 [10]
-0.01697109 -0.06395813 0.11046808 0.123604685 0.005048943 0.05422894 -0.033886787 -0.093006454
0.06299853 -0.026520368
00000000: f506 8bbc 7bfc 82bd 173d e23d 7424 fd3d
00000010: 9b71 a53b 2a1f 5e3d dfcc 0abd 2b7a bebd
00000020: 6005 813d 3e41 d9bc

downs.2.block.1.weight f4 [10]
1.0065024 1.0266637 1.001403 1.0080651 1.0332966 0.98895884 0.96016353 0.9520494
1.0253527 1.0198866
00000000: 12d5 803f b769 833f f92d 803f 4708 813f
00000010: 1043 843f 682c 7d3f 47cd 753f 82b9 733f
00000020: c23e 833f a58b 823f

downs.2.block.1.bias f4 [10]
-0.013040439 0.02356429 -0.07265241 0.038130593 0.04009168 0.029077228 0.0007041467 -0.025974093
0.034848157 -0.05184993
00000000: 91a7 55bc e609 c13c c9ca 94bd d32e 1c3d
00000010: 2c37 243d 5e33 ee3c 7c96 383a 9fc7 d4bc
00000020: f1bc 0e3d 9860 54bd

downs.2.block.1.running_mean f4 [10]
-0.10972945 -0.12351597 0.1586506 0.26342604 -0.09578221 0.06415334 -0.006341406 0.021828374
0.019210484 -0.06453541
00000000: d5b9 e0bd f1f5 fcbd 4e75 223e c7df 863e
00000010: 7729 c4bd d462 833d 92cb cfbb 6bd1 b23c
00000020: 4e5f 9d3c 242b 84bd

downs.2.block.1.running_var f4 [10]
0.085500374 0.16018914 0.13155448 0.16180435 0.11332535 0.44651002 0.94659 0.16913734
0.54196167 0.12442261
00000000: d21a af3d 9f08 243e 38b6 063e 0ab0 253e
00000010: 1f17 e83d f69c e43e b953 723f 5732 2d3e
00000020: 00be 0a3f 48d1 fe3d

downs.3.conv.weight f4 [10, 10, 6]
0.059520744 -0.03895704 0.09283566 0.108508304 0.0640082 0.14312576 -0.041009452 -0.0045985887
-0.012493589 -0.010464402 -0.030837908 -0.034394056 0.060649004 0.1318433 0.070052065 0.13588186
-0.061084785 0.13429645 0.037619885 0.018563872 -0.008280615 0.121753365 -0.046527583 0.013415197
0.100491464 0.09025103 0.079865485 -0.05414118 0.14479162 0.02826868 -0.07327488 0.046815794
0.03478467 0.09871797 0.07271138 0.10506041 -0.011674995 0.054667056 -0.030388093 -0.033822212
0.011788305 0.110777505 -0.033723287 -0.1369716 0.06743901 -0.033520285 -0.095906146 0.027194068
0.0038769 0.09878381 -0.007902508 -0.010702033 0.038727734 0.011614526 0.011284608 0.1306732
0.0148463845 0.08662963 -0.009474397 0.0001949872 -0.06080779 -0.03494904 -0.03629285 0.008243812
0.025774825 0.094895646 0.06349323 0.110585935 0.15535092 0.178931 -0.02404946 -0.063337766
0.049194943 0.06635871 0.10795834 -0.026605116 0.036946923 -0.04092046 0.0020427804 0.0058653243
0.027883451 -0.10547035 0.1511938 -0.041808214 0.044838145 0.021599857 -0.09215339 0.04367138
-0.11502016 0.044010784 0.05996542 0.13090289 -0.0038331668 0.1046653 -0.029089391 0.05248404
0.084508136 0.07984979 -0.0794535 0.010532578 0.04302704 -0.022324996 -0.13299471 0.06722641
0.022450963 -0.02125783 -0.09448278 -0.045843504 -0.10583348 -0.06406642 -0.011289206 -0.115728974
-0.11422268 0.029673085 -0.065563 0.04026871 0.082236394 -0.050207663 0.16509646 0.04035175
0.022813957 -0.096528165 -0.03964231 -0.03287351 0.020778771 -0.037314843 0.0019579763 -9.1335154e-05
-0.06423204 0.017319001 0.04795463 -0.063074924 -0.010709559 -0.123078614 0.08765578 0.033102434
0.11631881 -0.11466088 -0.1482549 0.06859838 -0.010395631 -0.020219903 0.001362155 -0.09254154
-0.18649232 -0.038849328 -0.06646428 0.032766614 -0.08272759 -0.1173819 -0.043657113 -0.0037747747
-0.08301132 -0.0076792813 -0.09928436 0.042921774 0.1149837 -0.0065088593 -0.08377247 -0.06889724
-0.009768778 0.05470114 0.031477213 -0.041575093 -0.122926384 -0.067027345 -0.02357372 -0.053168807
-0.014443207 0.14996703 0.120783925 0.040175166 -0.08287224 0.031127281 -0.04232006 -0.01833378
0.08863865 -0.06170154 -0.021040583 0.02305223 -0.058663145 0.081152506 0.07164644 0.04154516
-0.051105946 0.12002181 -0.10311369 -0.08365766 0.08641254 0.06957317 0.11360793 0.051309757
-0.0020762712 0.06785879 -0.00041890875 0.018740218 -0.019706722 -0.112764835 -0.03133193 -0.0942065
-0.0762647 0.05634558 -0.024697907 -0.07603707 0.07965955 0.10374334 -0.006676157 -0.008274642
0.05315238 0.14844964 -0.044140253 -0.039272096 -0.082849294 -0.03383527 0.113047875 -0.0032083127
0.107901655 0.01808493 -0.018181529 0.014220379 -0.034497995 0.13174468 0.011752525 -0.015437285
-0.0976249 0.0049165366 0.033235535 -0.044664115 -0.060887806 -0.11955172 -0.07053534 -0.06545459
-0.12791967 -0.0145453345 0.026026268 -0.031243302 -0.026398834 0.11739443 0.12241345 0.09780966
0.022413049 0.040510025 -0.041648973 -0.027154269 -0.09560053 0.05656645 -0.022782166 -0.090089425
0.06350739 -0.053099975 0.05719387 -0.18329516 0.012588987 -0.010091423 0.031229459 0.14966515
00000000: 06cc 733d 6b91 1fbd 9f20 be3d 9a39 de3d
00000010: bb16 833d 8f8f 123e 87f9 27bd c2af 96bb
00000020: e9b1 4cbc e272 2bbc c89f fcbc c8e0 0cbd
00000030: 176b 783d ee01 073e 7577 8f3d 9d24 0b3e
00000040: 0a34 7abd 0285 093e 4f17 1a3d 4313 983c
00000050: 6bab 07bc d459 f93d b593 3ebd 6acb 5b3c
00000060: 78ce cd3d 88d5 b83d 8490 a33d 24c3 5dbd
00000070: 4144 143e b893 e73c 2411 96bd ebc1 3f3d
00000080: 5f7a 0e3d a62c ca3d b4e9 943d ea29 d73d
00000090: 7a48 3fbc 90ea 5f3d 73f0 f8bc 2989 0abd
000000a0: bc23 413c 51df e23d 6e21 0abd 4842 0cbe
000000b0: 771d 8a3d 914c 09bd 716a c4bd 18c6 de3c
000000c0: 9713 7e3b 2b4f ca3d 8579 01bc 9457 2fbc
000000d0: f9a0 1e3d da4a 3e3c 14e3 383c 32cf 053e
000000e0: 403e 733c e06a b13d 803a 1bbc 7a75 4c39
000000f0: 9711 79bd b926 0fbd d0a7 14bd 0e11 073c
00000100: ba25 d33c a658 c23d bd08 823d e17a e23d
00000110: 5014 1f3e b039 373e 6003 c5bc 3bb7 81bd
00000120: a380 493d 13e7 873d 4319 dd3d f9f2 d9bc
00000130: a855 173d 369c 27bd 2be0 053b e831 c03b
00000140: d66b e43c d700 d8bd 8cd2 1a3e 173f 2bbd
00000150: 34a8 373d 2ff2 b03c ebba bcbd c3e0 323d
00000160: b18f ebbd a744 343d 4d9e 753d 680b 063e
00000170: de35 7bbb c35a d63d e04c eebc 81f9 563d
00000180: 9a12 ad3d 4988 a33d 84b8 a2bd d690 2c3c
00000190: 1f3d 303d e9e2 b6bc c42f 08be 00ae 893d
000001a0: 15eb b73c e724 aebc 3080 c1bd 66c6 3bbd
000001b0: 39bf d8bd 4135 83bd 5df6 38bc 5003 edbd
000001c0: 95ed e9bd f814 f33c e545 86bd cef0 243d
000001d0: 8e6b a83d 8da6 4dbd 0c0f 293e e047 253d
000001e0: 56e4 ba3c 8fb0 c5bd fa5f 22bd 60a6 06bd
000001f0: 3e38 aa3c 73d7 18bd 6451 003b 308b bfb8
00000200: 168c 83bd 94e0 8d3c 136c 443d 6d2d 81bd
00000210: 2577 2fbc a410 fcbd e084 b33d 6b96 073d
00000220: 8e38 ee3d 53d3 eabd 22d0 17be 4f7d 8c3d
00000230: 7052 2abc 36a4 a5bc 568a b23a 6b86 bdbd
00000240: d8f7 3ebe 7920 1fbd 6d1e 88bd 4936 063d
00000250: 156d a9bd ec65 f0bd cdd1 32bd 3662 77bb
00000260: d701 aabd 7ba2 fbbb 9955 cbbd bece 2f3d
00000270: 937c eb3d 4548 d5bb e790 abbd ff19 8dbd
00000280: 3a0d 20bc 4d0e 603d 40ee 003d a54a 2abd
00000290: d4c0 fbbd a245 89bd ad1d c1bc 89c7 59bd
000002a0: 33a3 6cbc f590 193e 905d f73d b78e 243d
000002b0: ecb8 a9bd a4fe fe3c cd57 2dbd b930 96bc
000002c0: 2e88 b53d c1ba 7cbd 4d5d acbc 08d8 bc3c
000002d0: c448 70bd 4933 a63d 5ebb 923d 422b 2a3d
000002e0: 7854 51bd ffcd f53d 452d d3bd b554 abbd
000002f0: 0ff9 b03d 617c 8e3d 46ab e83d 2e2a 523d
00000300: 0d12 08bb 8df9 8a3d fba0 dbb9 1685 993c
00000310: fe6f a1bc 40f1 e6bd e955 00bd 56ef c0bd
00000320: ab30 9cbd 9fca 663d 4453 cabc 53b9 9bbd
00000330: 8c24 a33d 6377 d43d aac3 dabb 5d92 07bc
00000340: 4fb6 593d 2f03 183e 69cc 34bd c7db 20bd
00000350: e4ac a9bd da96 0abd a585 e73d 8e42 52bb
00000360: 8bfb dc3d d926 943c 6ef1 94bc 98fc 683c
00000370: c54d 0dbd 14e8 063e aa8d 403c abec 7cbc
00000380: 90ef c7bd e61a a13b fc21 083d b8f1 36bd
00000390: 7e65 79bd 88d7 f4bd d574 90bd 0e0d 86bd
000003a0: 60fd 02be 8e4f 6ebc 0a35 d53c f4f1 ffbc
000003b0: 5e42 d8bc 7e6c f03d e7b3 fa3d 6e50 c83d
000003c0: 929b b73c d7ed 253d 1d98 2abd a172 debc
000003d0: 36ca c3bd 39b2 673d aaa1 babc ce80 b8bd
000003e0: 2a10 823d 5c7f 59bd 1f44 6a3d bab1 3bbe
000003f0: 0a42 4e3c 7f56 25bc ecd4 ff3c d241 193e

downs.3.conv.bias f4 [10]
0.11640519 0.09682495 -0.07879008 -0.08012519 -0.0747435 0.13022119 -0.083565585 -0.053598274
-0.07719641 0.11860074
00000000: d865 ee3d 294c c63d b25c a1bd ad18 a4bd
00000010: 1f13 99bd b458 053e 6f24 abbd dd89 5bbd
00000020: 2719 9ebd f2e4 f23d

downs.3.norm.weight f4 [10]
0.97365284 0.96025056 1.009767 1.0170003 0.9995714 1.0456192 1.0017487 1.069825
1.0093528 1.046913
00000000: 5041 793f fbd2 753f 0c40 813f 112d 823f
00000010: e9e3 7f3f dad6 853f 4d39 803f 07f0 883f
00000020: 7932 813f 3f01 863f

downs.3.norm.bias f4 [10]
-0.072336674 -0.018587807 -0.023336949 0.06041391 0.0070678024 0.03725093 0.01693236 -0.022536242
0.058839876 0.06408895
00000000: 4025 94bd 7545 98bc 212d bfbc 9374 773d
00000010: 0699 e73b 6e94 183d bcb5 8a3c ed9d b8bc
00000020: 1502 713d 1141 833d

downs.3.norm.running_mean f4 [10]
0.40232322 0.12829421 -0.31868312 -0.008942915 0.01877334 -0.08557738 -0.17372343 0.063494235
0.0314545 -0.17821208
00000000: 4ffd cd3e 8f5f 033e 6f2a a3be 4e85 12bc
00000010: 8cca 993c 3243 afbd 8ee4 31be 4409 823d
00000020: 6fd6 003d 3a7d 36be

downs.3.norm.running_var f4 [10]
0.5230418 0.761767 0.39329034 0.43560845 1.0995078 0.47015408 0.2657048 0.18021306
0.46143356 0.2585362
00000000: 11e6 053f 2a03 433f 5a5d c93e 1208 df3e
00000010: acbc 8c3f 09b8 f03e 760a 883e c689 383e
00000020: 0541 ec3e db5e 843e
