Models/pytorch_workflow_unet.pth (torch, 81482 bytes, 143 tensors)

downs.0.conv.weight f4 [10, 1, 9]
0.047302246 -0.30326197 -0.2580244 0.054952502 0.0066940784 -0.25747198 0.23250882 0.027563613
-0.04803447 -0.224359 -0.15140244 -0.119775936 0.18335292 -0.3105933 0.21231484 -0.2325356
-0.10805051 -0.045109116 -0.22350442 0.031085849 0.07835071 -0.16078016 0.25619888 -0.18034717
0.058646046 0.29725254 -0.1315603 -0.14200859 -0.07118368 0.1921854 0.12333612 0.14036962
0.01356864 -0.1880463 0.012967706 -0.11807283 -0.14964104 -0.25838885 0.28431076 0.21712252
0.21197963 -0.14331922 -0.166587 0.042489134 -0.009778261 0.06410515 -0.14307141 -0.19618528
0.30500957 0.22690654 0.28586182 0.19942796 0.09985793 -0.102819525 -0.069284916 0.29273206
-0.04936723 -0.10021158 -0.16054758 -0.081289254 0.22571024 -0.0171026 0.24167272 0.31852186
0.31757495 0.25384438 -0.13561997 0.19089842 0.15681386 0.13016295 -0.19760343 -0.1772184
-0.068494245 -0.19402444 -0.21586895 0.024839005 -0.021087965 -0.21390268 0.0913322 -0.059221707
0.29328486 0.18534374 -0.1726774 0.065320574 -0.2727868 -0.03689623 0.25832504 -0.30468178
-0.041875284 0.333037
00000000: 00c0 413d 2745 9bbe c61b 84be e015 613d
00000010: 005a db3b 5ed3 83be cb16 6e3e 16cd e13c
00000020: cbbf 44bd 5ebe 65be 3e09 1bbe 164d f5bd
00000030: dec0 3b3e 1606 9fbe 1069 593e d01d 6ebe
00000040: 9649 ddbd 56c4 38bd 58de 64be c0a7 fe3c
00000050: 5676 a03d 8ea3 24be 802c 833e eeac 38be
00000060: d636 703d 7c31 983e beb7 06be b36a 11be
00000070: c0c8 91bd 40cc 443e a697 fc3d 0ebd 0f3e
00000080: 004f 5e3c 368f 40be 8076 543c 2bd0 f1bd
00000090: 803b 19be 8b4b 84be 2e91 913e 5e55 5e3e
000000a0: 3011 593e 46c2 12be c895 2abe 1609 2e3d
000000b0: 0035 20bc 9049 833d 5081 12be cbe4 48be
000000c0: 372a 9c3e 305a 683e 7b5c 923e d836 4c3e
000000d0: 5082 cc3d 0b93 d2bd 40e5 8dbd fae0 953e
000000e0: 4b35 4abd bb3b cdbd 9666 24be fb7a a6bd
000000f0: 9620 673e c01a 8cbc 0e79 773e 4c15 a33e
00000100: 2f99 a23e e4f7 813e f6df 0abe e07a 433e
00000110: d093 203e 7049 053e 8e58 4abe be78 35be
00000120: b646 8cbd 58ae 46be c00c 5dbe 2b7b cb3c
00000130: abc0 acbc 4e09 5bbe 600c bb3d 7692 72bd
00000140: 6f29 963e c0ca 3d3e 58d2 30be cbc6 853d
00000150: b6aa 8bbe 8020 17bd 2e43 843e 40ff 9bbe
00000160: 6b85 2bbd d383 aa3e

downs.0.conv.bias f4 [10]
-0.023106894 0.25749493 -0.23153555 -0.08171531 -0.15448165 0.3303277 0.23168525 -0.32115322
-0.27962178 -0.057436746
00000000: ab4a bdbc 60d6 833e a817 6dbe 5b5a a7bd
00000010: 7030 1ebe b620 a93e e63e 6d3e 326e a4be
00000020: 962a 8fbe cb42 6bbd

downs.0.norm.weight f4 [10]
1.0 1.0 1.0 1.0 1.0 1.0 1.0 1.0
1.0 1.0
00000000: 0000 803f 0000 803f 0000 803f 0000 803f
00000010: 0000 803f 0000 803f 0000 803f 0000 803f
00000020: 0000 803f 0000 803f

downs.0.norm.bias f4 [10]
0.0 0.0 0.0 0.0 0.0 0.0 0.0 0.0
0.0 0.0
00000000: 0000 0000 0000 0000 0000 0000 0000 0000
00000010: 0000 0000 0000 0000 0000 0000 0000 0000
00000020: 0000 0000 0000 0000

downs.0.norm.running_mean f4 [10]
0.0 0.0 0.0 0.0 0.0 0.0 0.0 0.0
0.0 0.0
00000000: 0000 0000 0000 0000 0000 0000 0000 0000
00000010: 0000 0000 0000 0000 0000 0000 0000 0000
00000020: 0000 0000 0000 0000

downs.0.norm.running_var f4 [10]
1.0 1.0 1.0 1.0 1.0 1.0 1.0 1.0
1.0 1.0
00000000: 0000 803f 0000 803f 0000 803f 0000 803f
00000010: 0000 803f 0000 803f 0000 803f 0000 803f
00000020: 0000 803f 0000 803f

downs.0.block.0.weight f4 [10, 1, 9]
0.047302246 -0.30326197 -0.2580244 0.054952502 0.0066940784 -0.25747198 0.23250882 0.027563613
-0.04803447 -0.224359 -0.15140244 -0.119775936 0.18335292 -0.3105933 0.21231484 -0.2325356
-0.10805051 -0.045109116 -0.22350442 0.031085849 0.07835071 -0.16078016 0.25619888 -0.18034717
0.058646046 0.29725254 -0.1315603 -0.14200859 -0.07118368 0.1921854 0.12333612 0.14036962
0.01356864 -0.1880463 0.012967706 -0.11807283 -0.14964104 -0.25838885 0.28431076 0.21712252
0.21197963 -0.14331922 -0.166587 0.042489134 -0.009778261 0.06410515 -0.14307141 -0.19618528
0.30500957 0.22690654 0.28586182 0.19942796 0.09985793 -0.102819525 -0.069284916 0.29273206
-0.04936723 -0.10021158 -0.16054758 -0.081289254 0.22571024 -0.0171026 0.24167272 0.31852186
0.31757495 0.25384438 -0.13561997 0.19089842 0.15681386 0.13016295 -0.19760343 -0.1772184
-0.068494245 -0.19402444 -0.21586895 0.024839005 -0.021087965 -0.21390268 0.0913322 -0.059221707
0.29328486 0.18534374 -0.1726774 0.065320574 -0.2727868 -0.03689623 0.25832504 -0.30468178
-0.041875284 0.333037
00000000: 00c0 413d 2745 9bbe c61b 84be e015 613d
00000010: 005a db3b 5ed3 83be cb16 6e3e 16cd e13c
00000020: cbbf 44bd 5ebe 65be 3e09 1bbe 164d f5bd
00000030: dec0 3b3e 1606 9fbe 1069 593e d01d 6ebe
00000040: 9649 ddbd 56c4 38bd 58de 64be c0a7 fe3c
00000050: 5676 a03d 8ea3 24be 802c 833e eeac 38be
00000060: d636 703d 7c31 983e beb7 06be b36a 11be
00000070: c0c8 91bd 40cc 443e a697 fc3d 0ebd 0f3e
00000080: 004f 5e3c 368f 40be 8076 543c 2bd0 f1bd
00000090: 803b 19be 8b4b 84be 2e91 913e 5e55 5e3e
000000a0: 3011 593e 46c2 12be c895 2abe 1609 2e3d
000000b0: 0035 20bc 9049 833d 5081 12be cbe4 48be
000000c0: 372a 9c3e 305a 683e 7b5c 923e d836 4c3e
000000d0: 5082 cc3d 0b93 d2bd 40e5 8dbd fae0 953e
000000e0: 4b35 4abd bb3b cdbd 9666 24be fb7a a6bd
000000f0: 9620 673e c01a 8cbc 0e79 773e 4c15 a33e
00000100: 2f99 a23e e4f7 813e f6df 0abe e07a 433e
00000110: d093 203e 7049 053e 8e58 4abe be78 35be
00000120: b646 8cbd 58ae 46be c00c 5dbe 2b7b cb3c
00000130: abc0 acbc 4e09 5bbe 600c bb3d 7692 72bd
00000140: 6f29 963e c0ca 3d3e 58d2 30be cbc6 853d
00000150: b6aa 8bbe 8020 17bd 2e43 843e 40ff 9bbe
00000160: 6b85 2bbd d383 aa3e

downs.0.block.0.bias f4 [10]
-0.023106894 0.25749493 -0.23153555 -0.08171531 -0.15448165 0.3303277 0.23168525 -0.32115322
-0.27962178 -0.057436746
00000000: ab4a bdbc 60d6 833e a817 6dbe 5b5a a7bd
00000010: 7030 1ebe b620 a93e e63e 6d3e 326e a4be
00000020: 962a 8fbe cb42 6bbd

downs.0.block.1.weight f4 [10]
1.0 1.0 1.0 1.0 1.0 1.0 1.0 1.0
1.0 1.0
00000000: 0000 803f 0000 803f 0000 803f 0000 803f
00000010: 0000 803f 0000 803f 0000 803f 0000 803f
00000020: 0000 803f 0000 803f

downs.0.block.1.bias f4 [10]
0.0 0.0 0.0 0.0 0.0 0.0 0.0 0.0
0.0 0.0
00000000: 0000 0000 0000 0000 0000 0000 0000 0000
00000010: 0000 0000 0000 0000 0000 0000 0000 0000
00000020: 0000 0000 0000 0000

downs.0.block.1.running_mean f4 [10]
0.0 0.0 0.0 0.0 0.0 0.0 0.0 0.0
0.0 0.0
00000000: 0000 0000 0000 0000 0000 0000 0000 0000
00000010: 0000 0000 0000 0000 0000 0000 0000 0000
00000020: 0000 0000 0000 0000

downs.0.block.1.running_var f4 [10]
1.0 1.0 1.0 1.0 1.0 1.0 1.0 1.0
1.0 1.0
00000000: 0000 803f 0000 803f 0000 803f 0000 803f
00000010: 0000 803f 0000 803f 0000 803f 0000 803f
00000020: 0000 803f 0000 803f

downs.1.conv.weight f4 [10, 10, 9]
-0.047673862 0.057947632 -0.09876918 0.06971707 -0.08138949 0.06543377 0.02284761 -0.05469262
-0.012329577 -0.032794315 0.06454165 0.022456802 0.05421212 -0.0043918975 -0.100133374 0.074092045
0.09695733 -0.067231126 -0.09213691 0.038464654 0.034644637 -0.099264055 -0.07338673 0.034855843
-0.03553918 0.0770619 -0.03567125 0.025152799 -0.037851017 -0.09141669 0.013449928 0.014773089
0.096237496 0.015662922 0.09039769 0.10176026 -0.002401732 -0.0011688547 0.031318616 -0.10446758
4.101465e-05 -0.02739418 -0.08356653 -0.06300857 -0.0006890562 0.012188526 -0.011059706 0.01859425
-0.06331919 -0.07342544 0.037994657 0.09205429 -0.09818027 0.05263147 0.09739475 0.05816116
0.07549492 -0.08419893 -0.08983514 -0.05176144 0.06919749 -0.008188844 0.07088779 0.09464294
0.10195504 0.033139937 0.09681248 0.080111966 0.015429035 0.09879361 -0.054400705 -0.08328813
-0.018091582 0.06870846 0.017238103 -0.024200728 0.0029442084 -0.005644176 -0.054720316 0.056507517
-0.06838416 0.0024441162 -0.03838353 0.010425361 -0.033332195 -0.048083708 0.025242545 -0.07836628
0.06272803 -0.0071988753 0.026546204 0.0063226395 -0.060757484 0.05553979 0.0065218695 0.06253356
0.048548903 0.06760637 -0.0071232417 -0.0748834 -0.07582505 0.047067076 0.052311044 0.056752536
0.0073545775 -0.054117773 0.09610706 0.08108778 0.0104018375 0.022496209 0.09025271 -0.0709904
-0.08158712 0.09556386 0.07220528 -0.050374724 0.047576554 0.07309952 -0.018398413 -0.0953484
0.060798626 -0.030260442 -0.09868689 -0.099938415 -0.087811925 0.056218896 0.033796813 -0.0023236985
0.08743075 0.07396845 0.089209035 -0.09922012 0.08412566 0.058981568 -0.04786299 -0.100172654
0.0732201 0.0780264 0.041277688 -0.012807666 0.0298369 -0.09277403 -0.018698068 0.00858459
-0.059816435 -0.013595665 0.07258338 -0.06832417 -0.065284625 0.03835621 -0.045011893 0.0998211
-0.006938877 -0.10433166 0.058771253 -0.07499845 0.050793048 -0.10380232 0.06369969 0.06998667
-0.09376621 0.06996578 -0.09921266 0.049763575 -0.04670816 -0.087458275 0.028267512 -0.07580349
0.02941312 0.03676472 0.10078794 -0.0710137 0.038021673 -0.08944418 0.035639506 0.08644962
0.05339013 -0.026430523 0.012983951 0.09023146 0.07323794 -0.09170239 0.089547105 0.087300785
0.07767881 -0.019753981 -0.031513438 -0.06598565 0.00038638464 -0.004752296 -0.069080316 0.0111493245
0.048641678 -0.09457377 -0.08767134 -0.068800844 0.09253418 0.05753418 -0.06102064 -0.0996135
0.010315812 -0.10054307 -0.09711751 -0.049809087 0.0995751 -0.076985076 0.06185058 0.09894735
-0.06868236 -0.073476434 -0.045771457 -0.052182082 0.088455796 -0.09390426 -0.06253004 -0.030121
-0.019359091 -0.02009219 0.035350293 0.08676665 0.0056143324 -0.05900882 0.021158885 0.064654164
-0.04192298 -0.010279636 -0.024836984 -0.050012127 -0.023510177 -0.06965211 0.0783665 0.09169357
0.092937626 -0.06289147 0.013202772 -0.09714713 -0.09934811 -0.010545087 -0.00016140722 0.10036487
0.08249245 0.08399421 -0.03316997 -0.08524986 -0.051121708 0.019733952 -0.07505227 0.015811298
-0.024263395 0.033145163 0.08610228 0.005840127 -0.09396727 -0.0032240732 -0.072129615 0.08784937
00000000: ab45 43bd 7f5a 6d3d 7f47 cabd d3c7 8e3d
00000010: 88af a6bd 2402 863d e92a bb3c 5e05 60bd
00000020: fe01 4abc 5553 06bd 6a2e 843d 54f7 b73c
00000030: 870d 5e3d e8e9 8fbb ba12 cdbd 92bd 973d
00000040: 9191 c63d 79b0 89bd 47b2 bcbd 1d8d 1d3d
00000050: 89e7 0d3d f44a cbbd c84b 96bd 00c5 0e3d
00000060: 8891 11bd a1d2 9d3d 041c 12bd 3e0d ce3c
00000070: ab09 1bbd ac38 bbbd 165d 5c3c d40a 723c
00000080: 2a18 c53d 874f 803c 6d22 b93d af67 d03d
00000090: 6066 1dbb 4134 99ba f347 003d 19f3 d5bd
000000a0: 2507 2c38 c269 e0bc ee24 abbd a30a 81bd
000000b0: c7a1 34ba 62b2 473c c533 35bc f852 983c
000000c0: 7ead 81bd 1460 96bd 49a0 1b3d f686 bc3d
000000d0: bd12 c9bd 1994 573d e676 c73d 663a 6e3d
000000e0: 159d 9a3d 7d70 acbd 7cfb b7bd ce03 54bd
000000f0: 6ab7 8d3d 802a 06bc 9e2d 913d 28d4 c13d
00000100: cecd d03d bebd 073d 9f45 c63d be11 a43d
00000110: 10ca 7c3c 4e54 ca3d 46d3 5ebd f892 aabd
00000120: cc34 94bc 05b7 8c3d ec36 8d3c 9b40 c6bc
00000130: 9ff3 403b c8f2 b8bb 6922 60bd 6d74 673d
00000140: ff0c 8cbd 772d 203b 0c38 1dbd 22cf 2a3c
00000150: 5787 08bd 6cf3 44bd 74c9 ce3c 807e a0bd
00000160: 8e77 803d 8be4 ebbb 6d77 d93c 252e cf3b
00000170: d7dc 78bd b17d 633d 68b5 d53b 9811 803d
00000180: 37db 463d 3575 8a3d 156a e9bb 785c 99bd
00000190: 2a4a 9bbd 68c9 403d 1b44 563d 5975 683d
000001a0: abfe f03b 99aa 5dbd c7d3 c43d 5a11 a63d
000001b0: 786c 2a3c f849 b83c 6ad6 b83d 6a63 91bd
000001c0: 2617 a7bd fcb6 c33d 5de0 933d ba55 4ebd
000001d0: a2df 423d 33b5 953d 45b8 96bc 0646 c3bd
000001e0: fb07 793d bfe4 f7bc 5a1c cabd 83ac ccbd
000001f0: bdd6 b3bd c945 663d 876e 0a3d 3149 18bb
00000200: e50e b33d c57c 973d 3ab3 b63d eb33 cbbd
00000210: 134a ac3d a896 713d fc0b 44bd 5227 cdbd
00000220: 6bf4 953d 4ecc 9f3d cb12 293d 3fd7 51bc
00000230: 846c f43c 5000 bebd b12c 99bc 61a6 0c3c
00000240: 1402 75bd 5ac0 5ebc 98a6 943d 8bed 8bbd
00000250: f2b3 85bd 671b 1d3d 645e 38bd 016f cc3d
00000260: 855f e3bb d6ab d5bd 20ba 703d ca98 99bd
00000270: 5f0c 503d 5096 d4bd fc74 823d 2c55 8f3d
00000280: 8008 c0bd 384a 8f3d 0230 cbbd e4d4 4b3d
00000290: 0e51 3fbd 531d b3bd 4591 e73c dc3e 9bbd
000002a0: c9f3 f03c 9a96 163d e869 ce3d a16f 91bd
000002b0: 9dbc 1b3d 832e b7bd bbfa 113d 800c b13d
000002c0: 9caf 5a3d d384 d8bc a3ba 543c 46cb b83d
000002d0: c6fd 953d 76ce bbbd 7964 b73d c1ca b23d
000002e0: 1116 9f3d 1ad3 a1bc 3c14 01bd 7c23 87bd
000002f0: ab93 ca39 26b9 9bbb fb79 8dbd a8ab 363c
00000300: 7f3c 473d e5af c1bd 088d b3bd 75e7 8cbd
00000310: 8f82 bd3d f6a8 6b3d c7f0 79bd 2a02 ccbd
00000320: a703 293c 86e9 cdbd 8ce5 c6bd 9d04 4cbd
00000330: 08ee cb3d 5aaa 9dbd 0957 7d3d e9a4 ca3d
00000340: 56a9 8cbd d07a 96bd da7a 3bbd e1bc 55bd
00000350: 5028 b53d e050 c0bd c00f 80bd 51c0 f6bc
00000360: f596 9ebc 6098 a4bc 78cb 103d b7b2 b13d
00000370: 6ff8 b73b 3cb3 71bd 6655 ad3c 6769 843d
00000380: 6eb7 2bbd eb6b 28bc ee76 cbbc 84d9 4cbd
00000390: 6a98 c0bc c4a5 8ebd 9e7e a03d d7c9 bb3d
000003a0: 1556 be3d 3ecd 80bd 7050 583c 13f5 c6bd
000003b0: 0677 cbbd 4dc5 2cbc 6c3f 29b9 198c cd3d
000003c0: cdf1 a83d 2805 ac3d 3cdd 07bd 7b97 aebd
000003d0: ff64 51bd 19a9 a13c 01b5 99bd b286 813c
000003e0: 07c4 c6bc 39c3 073d 6456 b03d 895e bf3b
000003f0: e971 c0bd f94a 53bb b1b8 93bd 5fea b33d

downs.1.conv.bias f4 [10]
0.040606502 -0.036093846 -0.05681861 0.039451934 0.026755499 0.04129101 -0.07075913 0.07234925
0.0392853 -0.011139875
00000000: 0153 263d 24d7 13bd a1ba 68bd 5a98 213d
00000010: 592e db3c c320 293d 2aea 90bd d82b 943d
00000020: 9fe9 203d 0684 36bc

downs.1.norm.weight f4 [10]
1.0 1.0 1.0 1.0 1.0 1.0 1.0 1.0
1.0 1.0
00000000: 0000 803f 0000 803f 0000 803f 0000 803f
00000010: 0000 803f 0000 803f 0000 803f 0000 803f
00000020: 0000 803f 0000 803f

downs.1.norm.bias f4 [10]
0.0 0.0 0.0 0.0 0.0 0.0 0.0 0.0
0.0 0.0
00000000: 0000 0000 0000 0000 0000 0000 0000 0000
00000010: 0000 0000 0000 0000 0000 0000 0000 0000
00000020: 0000 0000 0000 0000

downs.1.norm.running_mean f4 [10]
0.0 0.0 0.0 0.0 0.0 0.0 0.0 0.0
0.0 0.0
00000000: 0000 0000 0000 0000 0000 0000 0000 0000
00000010: 0000 0000 0000 0000 0000 0000 0000 0000
00000020: 0000 0000 0000 0000

downs.1.norm.running_var f4 [10]
1.0 1.0 1.0 1.0 1.0 1.0 1.0 1.0
1.0 1.0
00000000: 0000 803f 0000 803f 0000 803f 0000 803f
00000010: 0000 803f 0000 803f 0000 803f 0000 803f
00000020: 0000 803f 0000 803f

downs.1.block.0.weight f4 [10, 10, 9]
-0.047673862 0.057947632 -0.09876918 0.06971707 -0.08138949 0.06543377 0.02284761 -0.05469262
-0.012329577 -0.032794315 0.06454165 0.022456802 0.05421212 -0.0043918975 -0.100133374 0.074092045
0.09695733 -0.067231126 -0.09213691 0.038464654 0.034644637 -0.099264055 -0.07338673 0.034855843
-0.03553918 0.0770619 -0.03567125 0.025152799 -0.037851017 -0.09141669 0.013449928 0.014773089
0.096237496 0.015662922 0.09039769 0.10176026 -0.002401732 -0.0011688547 0.031318616 -0.10446758
4.101465e-05 -0.02739418 -0.08356653 -0.06300857 -0.0006890562 0.012188526 -0.011059706 0.01859425
-0.06331919 -0.07342544 0.037994657 0.09205429 -0.09818027 0.05263147 0.09739475 0.05816116
0.07549492 -0.08419893 -0.08983514 -0.05176144 0.06919749 -0.008188844 0.07088779 0.09464294
0.10195504 0.033139937 0.09681248 0.080111966 0.015429035 0.09879361 -0.054400705 -0.08328813
-0.018091582 0.06870846 0.017238103 -0.024200728 0.0029442084 -0.005644176 -0.054720316 0.056507517
-0.06838416 0.0024441162 -0.03838353 0.010425361 -0.033332195 -0.048083708 0.025242545 -0.07836628
0.06272803 -0.0071988753 0.026546204 0.0063226395 -0.060757484 0.05553979 0.0065218695 0.06253356
0.048548903 0.06760637 -0.0071232417 -0.0748834 -0.07582505 0.047067076 0.052311044 0.056752536
0.0073545775 -0.054117773 0.09610706 0.08108778 0.0104018375 0.022496209 0.09025271 -0.0709904
-0.08158712 0.09556386 0.07220528 -0.050374724 0.047576554 0.07309952 -0.018398413 -0.0953484
0.060798626 -0.030260442 -0.09868689 -0.099938415 -0.087811925 0.056218896 0.033796813 -0.0023236985
0.08743075 0.07396845 0.089209035 -0.09922012 0.08412566 0.058981568 -0.04786299 -0.100172654
0.0732201 0.0780264 0.041277688 -0.012807666 0.0298369 -0.09277403 -0.018698068 0.00858459
-0.059816435 -0.013595665 0.07258338 -0.06832417 -0.065284625 0.03835621 -0.045011893 0.0998211
-0.006938877 -0.10433166 0.058771253 -0.07499845 0.050793048 -0.10380232 0.06369969 0.06998667
-0.09376621 0.06996578 -0.09921266 0.049763575 -0.04670816 -0.087458275 0.028267512 -0.07580349
0.02941312 0.03676472 0.10078794 -0.0710137 0.038021673 -0.08944418 0.035639506 0.08644962
0.05339013 -0.026430523 0.012983951 0.09023146 0.07323794 -0.09170239 0.089547105 0.087300785
0.07767881 -0.019753981 -0.031513438 -0.06598565 0.00038638464 -0.004752296 -0.069080316 0.0111493245
0.048641678 -0.09457377 -0.08767134 -0.068800844 0.09253418 0.05753418 -0.06102064 -0.0996135
0.010315812 -0.10054307 -0.09711751 -0.049809087 0.0995751 -0.076985076 0.06185058 0.09894735
-0.06868236 -0.073476434 -0.045771457 -0.052182082 0.088455796 -0.09390426 -0.06253004 -0.030121
-0.019359091 -0.02009219 0.035350293 0.08676665 0.0056143324 -0.05900882 0.021158885 0.064654164
-0.04192298 -0.010279636 -0.024836984 -0.050012127 -0.023510177 -0.06965211 0.0783665 0.09169357
0.092937626 -0.06289147 0.013202772 -0.09714713 -0.09934811 -0.010545087 -0.00016140722 0.10036487
0.08249245 0.08399421 -0.03316997 -0.08524986 -0.051121708 0.019733952 -0.07505227 0.015811298
-0.024263395 0.033145163 0.08610228 0.005840127 -0.09396727 -0.0032240732 -0.072129615 0.08784937
00000000: ab45 43bd 7f5a 6d3d 7f47 cabd d3c7 8e3d
00000010: 88af a6bd 2402 863d e92a bb3c 5e05 60bd
00000020: fe01 4abc 5553 06bd 6a2e 843d 54f7 b73c
00000030: 870d 5e3d e8e9 8fbb ba12 cdbd 92bd 973d
00000040: 9191 c63d 79b0 89bd 47b2 bcbd 1d8d 1d3d
00000050: 89e7 0d3d f44a cbbd c84b 96bd 00c5 0e3d
00000060: 8891 11bd a1d2 9d3d 041c 12bd 3e0d ce3c
00000070: ab09 1bbd ac38 bbbd 165d 5c3c d40a 723c
00000080: 2a18 c53d 874f 803c 6d22 b93d af67 d03d
00000090: 6066 1dbb 4134 99ba f347 003d 19f3 d5bd
000000a0: 2507 2c38 c269 e0bc ee24 abbd a30a 81bd
000000b0: c7a1 34ba 62b2 473c c533 35bc f852 983c
000000c0: 7ead 81bd 1460 96bd 49a0 1b3d f686 bc3d
000000d0: bd12 c9bd 1994 573d e676 c73d 663a 6e3d
000000e0: 159d 9a3d 7d70 acbd 7cfb b7bd ce03 54bd
000000f0: 6ab7 8d3d 802a 06bc 9e2d 913d 28d4 c13d
00000100: cecd d03d bebd 073d 9f45 c63d be11 a43d
00000110: 10ca 7c3c 4e54 ca3d 46d3 5ebd f892 aabd
00000120: cc34 94bc 05b7 8c3d ec36 8d3c 9b40 c6bc
00000130: 9ff3 403b c8f2 b8bb 6922 60bd 6d74 673d
00000140: ff0c 8cbd 772d 203b 0c38 1dbd 22cf 2a3c
00000150: 5787 08bd 6cf3 44bd 74c9 ce3c 807e a0bd
00000160: 8e77 803d 8be4 ebbb 6d77 d93c 252e cf3b
00000170: d7dc 78bd b17d 633d 68b5 d53b 9811 803d
00000180: 37db 463d 3575 8a3d 156a e9bb 785c 99bd
00000190: 2a4a 9bbd 68c9 403d 1b44 563d 5975 683d
000001a0: abfe f03b 99aa 5dbd c7d3 c43d 5a11 a63d
000001b0: 786c 2a3c f849 b83c 6ad6 b83d 6a63 91bd
000001c0: 2617 a7bd fcb6 c33d 5de0 933d ba55 4ebd
000001d0: a2df 423d 33b5 953d 45b8 96bc 0646 c3bd
000001e0: fb07 793d bfe4 f7bc 5a1c cabd 83ac ccbd
000001f0: bdd6 b3bd c945 663d 876e 0a3d 3149 18bb
00000200: e50e b33d c57c 973d 3ab3 b63d eb33 cbbd
00000210: 134a ac3d a896 713d fc0b 44bd 5227 cdbd
00000220: 6bf4 953d 4ecc 9f3d cb12 293d 3fd7 51bc
00000230: 846c f43c 5000 bebd b12c 99bc 61a6 0c3c
00000240: 1402 75bd 5ac0 5ebc 98a6 943d 8bed 8bbd
00000250: f2b3 85bd 671b 1d3d 645e 38bd 016f cc3d
00000260: 855f e3bb d6ab d5bd 20ba 703d ca98 99bd
00000270: 5f0c 503d 5096 d4bd fc74 823d 2c55 8f3d
00000280: 8008 c0bd 384a 8f3d 0230 cbbd e4d4 4b3d
00000290: 0e51 3fbd 531d b3bd 4591 e73c dc3e 9bbd
000002a0: c9f3 f03c 9a96 163d e869 ce3d a16f 91bd
000002b0: 9dbc 1b3d 832e b7bd bbfa 113d 800c b13d
000002c0: 9caf 5a3d d384 d8bc a3ba 543c 46cb b83d
000002d0: c6fd 953d 76ce bbbd 7964 b73d c1ca b23d
000002e0: 1116 9f3d 1ad3 a1bc 3c14 01bd 7c23 87bd
000002f0: ab93 ca39 26b9 9bbb fb79 8dbd a8ab 363c
00000300: 7f3c 473d e5af c1bd 088d b3bd 75e7 8cbd
00000310: 8f82 bd3d f6a8 6b3d c7f0 79bd 2a02 ccbd
00000320: a703 293c 86e9 cdbd 8ce5 c6bd 9d04 4cbd
00000330: 08ee cb3d 5aaa 9dbd 0957 7d3d e9a4 ca3d
00000340: 56a9 8cbd d07a 96bd da7a 3bbd e1bc 55bd
00000350: 5028 b53d e050 c0bd c00f 80bd 51c0 f6bc
00000360: f596 9ebc 6098 a4bc 78cb 103d b7b2 b13d
00000370: 6ff8 b73b 3cb3 71bd 6655 ad3c 6769 843d
00000380: 6eb7 2bbd eb6b 28bc ee76 cbbc 84d9 4cbd
00000390: 6a98 c0bc c4a5 8ebd 9e7e a03d d7c9 bb3d
000003a0: 1556 be3d 3ecd 80bd 7050 583c 13f5 c6bd
000003b0: 0677 cbbd 4dc5 2cbc 6c3f 29b9 198c cd3d
000003c0: cdf1 a83d 2805 ac3d 3cdd 07bd 7b97 aebd
000003d0: ff64 51bd 19a9 a13c 01b5 99bd b286 813c
000003e0: 07c4 c6bc 39c3 073d 6456 b03d 895e bf3b
000003f0: e971 c0bd f94a 53bb b1b8 93bd 5fea b33d

downs.1.block.0.bias f4 [10]
0.040606502 -0.036093846 -0.05681861 0.039451934 0.026755499 0.04129101 -0.07075913 0.07234925
0.0392853 -0.011139875
00000000: 0153 263d 24d7 13bd a1ba 68bd 5a98 213d
00000010: 592e db3c c320 293d 2aea 90bd d82b 943d
00000020: 9fe9 203d 0684 36bc

downs.1.block.1.weight f4 [10]
1.0 1.0 1.0 1.0 1.0 1.0 1.0 1.0
1.0 1.0
00000000: 0000 803f 0000 803f 0000 803f 0000 803f
00000010: 0000 803f 0000 803f 0000 803f 0000 803f
00000020: 0000 803f 0000 803f

downs.1.block.1.bias f4 [10]
0.0 0.0 0.0 0.0 0.0 0.0 0.0 0.0
0.0 0.0
00000000: 0000 0000 0000 0000 0000 0000 0000 0000
00000010: 0000 0000 0000 0000 0000 0000 0000 0000
00000020: 0000 0000 0000 0000

downs.1.block.1.running_mean f4 [10]
0.0 0.0 0.0 0.0 0.0 0.0 0.0 0.0
0.0 0.0
00000000: 0000 0000 0000 0000 0000 0000 0000 0000
00000010: 0000 0000 0000 0000 0000 0000 0000 0000
00000020: 0000 0000 0000 0000

downs.1.block.1.running_var f4 [10]
1.0 1.0 1.0 1.0 1.0 1.0 1.0 1.0
1.0 1.0
00000000: 0000 803f 0000 803f 0000 803f 0000 803f
00000010: 0000 803f 0000 803f 0000 803f 0000 803f
00000020: 0000 803f 0000 803f

downs.2.conv.weight f4 [10, 10, 6]
0.12817356 0.12051526 0.029617496 -0.05625396 0.07610487 0.122103155 0.021765945 -0.08786176
0.069746256 0.0059022857 0.04074333 -0.12536448 0.0022977204 0.12404885 -0.028241519 0.09401167
0.08057324 0.06547082 -0.10427276 -0.12668027 0.11938407 -0.024352765 -0.08347696 0.013990623
0.06836745 -0.08865671 0.054718222 0.067356065 0.08763641 0.110473424 0.03819055 -0.004174713
-0.11303559 -0.025539584 0.0408696 0.083364755 -0.050461095 -0.069055654 -0.039913382 -0.015221042
-0.0797132 0.12449711 -0.017865572 -0.1277405 0.11877715 0.00702496 -0.11543568 0.076352835
-0.12071287 -0.118486986 -0.090674184 0.103820056 0.09066941 -0.041772325 0.032475606 -0.10019604
-0.1273228 0.07820599 0.119613215 -0.088808544 -0.11318972 0.10260681 0.03126584 0.084569365
-0.00655163 0.11010387 0.08174919 -0.030535884 -0.11620901 -0.030916845 -0.05517604 -0.11860719
-0.093335286 0.080432944 0.035629943 0.09028256 -0.117926545 0.013489268 -0.018787118 -0.08933251
0.027203934 -0.04002799 -0.07849884 0.07851469 -0.07506365 -0.10708153 -0.05919239 -0.0017159379
-0.05511197 0.080428205 -0.05028462 -0.04270564 0.0962757 0.11334301 -0.052309833 -0.08492675
0.08934165 -0.030817796 0.07008951 -0.08612896 0.016372357 0.085235395 -0.038275164 0.053623725
-0.026902325 -0.104283564 -0.08835539 -0.031894654 0.12179342 0.08599028 0.06663683 -0.070912145
-0.0982047 -0.030071758 0.042297997 -0.075220615 -0.01593704 0.06304956 0.031165406 0.111937575
-0.053524032 0.10922571 -0.073629536 -0.03365547 -0.07790776 -0.034077153 -0.08124742 0.02273186
0.019193871 0.07520104 -0.0011975768 0.08744918 0.032754794 -0.07634255 0.07127404 -0.0007847132
-0.11488802 0.08309673 0.044661198 0.01976191 -0.03368631 0.065081656 -0.08990144 0.016483702
-0.08915931 -0.021814132 0.11231606 -0.12397978 0.03696258 -0.079125375 0.12186654 0.043554638
-0.04391607 0.05850542 -0.030101828 0.06535453 0.119777806 -0.08706823 -0.029714929 0.06396925
-0.009480072 0.017014097 0.09489285 -0.016141893 0.119050406 -0.12269523 -0.0010866006 0.031248465
-0.09583149 -0.04794073 -0.076044925 -0.07346388 0.11144246 0.11962182 0.05896539 0.04640361
0.05518686 -0.06028087 0.12753539 0.0440069 0.06409631 -0.026178248 0.03428493 0.07504466
0.07246752 -0.06321724 0.12272906 -0.09475743 -0.05262794 0.11082955 0.061363775 -0.018943463
-0.120299526 -0.054248955 0.12041804 -0.022040024 0.10837033 0.052385874 0.086308785 -0.0719959
-0.017447477 0.07856366 0.08551421 0.048834726 -0.109552465 -0.10774251 0.03438312 -0.07909361
-0.0078567965 0.038787384 -0.0016160115 0.10327521 0.0047864905 0.08617962 -0.108613506 0.01169104
0.011032585 -0.084057376 -0.070513815 0.098112345 0.05742776 0.10752898 -0.04772598 -0.11917265
-0.012872842 0.031104801 0.11497739 0.03722219 -0.11102628 -0.07318603 -0.01020338 0.00836914
0.12282066 0.03548614 0.01777137 -0.076815315 0.10197788 0.11054133 0.10818197 -0.039745312
-0.090461574 -0.03372446 -0.033059098 -0.0428052 -0.03574852 -0.048435684 0.10117756 -0.1268927
-0.098740265 0.018466761 -0.07795393 0.11813765 -0.11643738 0.10463993 0.05662604 0.06787721
00000000: ee3f 033e b4d0 f63d 64a0 f23c 8d6a 66bd
00000010: dfdc 9b3d 3811 fa3d 7f4e b23c def0 b3bd
00000020: 20d7 8e3d f667 c13b 7ae2 263d 8c5f 00be
00000030: 5a95 163b 530d fe3d c25a e7bc 3189 c03d
00000040: 9503 a53d 9115 863d f58c d5bd 79b8 01be
00000050: a37f f43d 737f c7bc f8f5 aabd ed38 653c
00000060: 3c04 8c3d a691 b5bd 3720 603d faf1 893d
00000070: b87a b33d e43f e23d b26d 1c3d 08cc 88bb
00000080: 347f e7bd 6438 d1bc e266 273d 24bb aa3d
00000090: 4bb0 4ebd 0d6d 8dbd 377c 23bd ad61 79bc
000000a0: ad40 a3bd 57f8 fe3d d25a 92bc 68ce 02be
000000b0: 6f41 f33d a331 e63b 8b69 ecbd e05e 9c3d
000000c0: 4f38 f7bd 4ea9 f2bd 63b3 b9bd 9c9f d43d
000000d0: e2b0 b93d 7519 2bbd 2405 053d 9533 cdbd
000000e0: e860 02be 762a a03d c6f7 f43d 41e1 b5bd
000000f0: 03d0 e7bd 8523 d23d 9c10 003d b432 ad3d
00000100: 0eaf d6bb 237e e13d 1f6c a73d 6426 fabc
00000110: fdfe edbd 5345 fdbc 4500 62bd 54e8 f2bd
00000120: 9226 bfbd 07ba a43d b4f0 113d 10e6 b83d
00000130: 7983 f1bd 1702 5d3c 71e7 99bc f7f3 b6bd
00000140: c9da de3c 64f4 23bd 00c4 a0bd 4fcc a03d
00000150: f9ba 99bd 904d dbbd b873 72bd 52e9 e0ba
00000160: 17bd 61bd 8bb7 a43d 3ff7 4dbd 1cec 2ebd
00000170: 322c c53d 6120 e83d d642 56bd 13ee adbd
00000180: c1f8 b63d 9a75 fcbc 178b 8f3d 6164 b0bd
00000190: 521f 863c e58f ae3d 6bc6 1cbd 8da4 5b3d
000001a0: 4462 dcbc 9f92 d5bd acf3 b4bd f8a3 02bd
000001b0: d46e f93d ac1b b03d e478 883d 633a 91bd
000001c0: 8c1f c9bd 0c59 f6bc aa40 2d3d 440d 9abd
000001d0: 658e 82bc 2120 813d 984e ff3c 873f e53d
000001e0: 043c 5bbd bbb1 df3d 15cb 96bd 51da 09bd
000001f0: 1b8e 9fbd 7c94 0bbd 0c65 a6bd 2a38 ba3c
00000200: 773c 9d3c 0103 9a3d 02f8 9cba 8e18 b33d
00000210: e429 063d 7c59 9cbd 20f8 913d 36b5 4dba
00000220: 694a ebbd 9e2e aa3d a9ee 363d bbe3 a13c
00000230: a8fa 09bd 8849 853d 3f1e b8bd d408 873c
00000240: 2899 b6bd 8db3 b2bc f605 e63d 1ce9 fdbd
00000250: 1366 173d 7c0c a2bd 2a95 f93d 5966 323d
00000260: 56e1 33bd 61a3 6f3d 1c98 f6bc 99d8 853d
00000270: 114e f53d d450 b2bd b96c f3bc 4f02 833d
00000280: 4e52 1bbc 2661 8b3c 2f57 c23d 013c 84bc
00000290: b3d0 f33d a347 fbbd 446c 8eba c8fc ff3c
000002a0: 4d43 c4bd 805d 44bd 71bd 9bbd 3b74 96bd
000002b0: f23b e43d 49fc f43d b185 713d b611 3e3d
000002c0: 9e0b 623d 13e9 76bd a398 023e 9440 343d
000002d0: ed44 833d c473 d6bc 5b6e 0c3d 04b1 993d
000002e0: da69 943d 0a78 81bd 6059 fb3d 2f10 c2bd
000002f0: 6590 57bd 9afa e23d 9558 7b3d 522f 9bbc
00000300: 995f f6bd 2734 5ebd bc9d f63d 488d b4bc
00000310: 43f1 dd3d 9292 563d a9c2 b03d 9672 93bd
00000320: 03ee 8ebc fce5 a03d 1322 af3d ec06 483d
00000330: 0b5d e0bd 1ba8 dcbd 50d5 0c3d d5fb a1bd
00000340: cbb9 00bc 85df 1e3d 59d0 d3ba f481 d33d
00000350: fed7 9c3b f17e b03d c270 debd c78b 3f3c
00000360: 04c2 343c 4626 acbd 8c69 90bd 20ef c83d
00000370: 5f39 6b3d 2738 dc3d 517c 43bd ca10 f4bd
00000380: 9de8 52bc 7fcf fe3c 4479 eb3d 4c76 183d
00000390: bf61 e3bd 8fe2 95bd 142c 27bc b81e 093c
000003a0: 6689 fb3d ea59 113d 4495 913c 5951 9dbd
000003b0: c7d9 d03d 7e63 e23d 828e dd3d fbcb 22bd
000003c0: eb43 b9bd a922 0abd fa68 07bd 8154 2fbd
000003d0: 0a6d 12bd 7f64 46bd 2e36 cf3d 29f0 01be
000003e0: 5638 cabd 9b47 973c 4fa6 9fbd 27f2 f13d
000003f0: b976 eebd 764d d63d b5f0 673d 3503 8b3d

downs.2.conv.bias f4 [10]
-0.09874363 0.11579309 0.038275227 0.028905068 -0.090179965 -0.016354581 0.08703165 -0.0356871
0.014903719 -0.12840414
00000000: 1a3a cabd ed24 ed3d 7cc6 1c3d 52ca ec3c
00000010: 46b0 b8bd 0bfa 85bc a63d b23d a32c 12bd
00000020: ba2e 743c 607c 03be

downs.2.norm.weight f4 [10]
1.0 1.0 1.0 1.0 1.0 1.0 1.0 1.0
1.0 1.0
00000000: 0000 803f 0000 803f 0000 803f 0000 803f
00000010: 0000 803f 0000 803f 0000 803f 0000 803f
00000020: 0000 803f 0000 803f

downs.2.norm.bias f4 [10]
0.0 0.0 0.0 0.0 0.0 0.0 0.0 0.0
0.0 0.0
00000000: 0000 0000 0000 0000 0000 0000 0000 0000
00000010: 0000 0000 0000 0000 0000 0000 0000 0000
00000020: 0000 0000 0000 0000

downs.2.norm.running_mean f4 [10]
0.0 0.0 0.0 0.0 0.0 0.0 0.0 0.0
0.0 0.0
00000000: 0000 0000 0000 0000 0000 0000 0000 0000
00000010: 0000 0000 0000 0000 0000 0000 0000 0000
00000020: 0000 0000 0000 0000

downs.2.norm.running_var f4 [10]
1.0 1.0 1.0 1.0 1.0 1.0 1.0 1.0
1.0 1.0
00000000: 0000 803f 0000 803f 0000 803f 0000 803f
00000010: 0000 803f 0000 803f 0000 803f 0000 803f
00000020: 0000 803f 0000 803f

downs.2.block.0.weight f4 [10, 10, 6]
0.12817356 0.12051526 0.029617496 -0.05625396 0.07610487 0.122103155 0.021765945 -0.08786176
0.069746256 0.0059022857 0.04074333 -0.12536448 0.0022977204 0.12404885 -0.028241519 0.09401167
0.08057324 0.06547082 -0.10427276 -0.12668027 0.11938407 -0.024352765 -0.08347696 0.013990623
0.06836745 -0.08865671 0.054718222 0.067356065 0.08763641 0.110473424 0.03819055 -0.004174713
-0.11303559 -0.025539584 0.0408696 0.083364755 -0.050461095 -0.069055654 -0.039913382 -0.015221042
-0.0797132 0.12449711 -0.017865572 -0.1277405 0.11877715 0.00702496 -0.11543568 0.076352835
-0.12071287 -0.118486986 -0.090674184 0.103820056 0.09066941 -0.041772325 0.032475606 -0.10019604
-0.1273228 0.07820599 0.119613215 -0.088808544 -0.11318972 0.10260681 0.03126584 0.084569365
-0.00655163 0.11010387 0.08174919 -0.030535884 -0.11620901 -0.030916845 -0.05517604 -0.11860719
-0.093335286 0.080432944 0.035629943 0.09028256 -0.117926545 0.013489268 -0.018787118 -0.08933251
0.027203934 -0.04002799 -0.07849884 0.07851469 -0.07506365 -0.10708153 -0.05919239 -0.0017159379
-0.05511197 0.080428205 -0.05028462 -0.04270564 0.0962757 0.11334301 -0.052309833 -0.08492675
0.08934165 -0.030817796 0.07008951 -0.08612896 0.016372357 0.085235395 -0.038275164 0.053623725
-0.026902325 -0.104283564 -0.08835539 -0.031894654 0.12179342 0.08599028 0.06663683 -0.070912145
-0.0982047 -0.030071758 0.042297997 -0.075220615 -0.01593704 0.06304956 0.031165406 0.111937575
-0.053524032 0.10922571 -0.073629536 -0.03365547 -0.07790776 -0.034077153 -0.08124742 0.02273186
0.019193871 0.07520104 -0.0011975768 0.08744918 0.032754794 -0.07634255 0.07127404 -0.0007847132
-0.11488802 0.08309673 0.044661198 0.01976191 -0.03368631 0.065081656 -0.08990144 0.016483702
-0.08915931 -0.021814132 0.11231606 -0.12397978 0.03696258 -0.079125375 0.12186654 0.043554638
-0.04391607 0.05850542 -0.030101828 0.06535453 0.119777806 -0.08706823 -0.029714929 0.06396925
-0.009480072 0.017014097 0.09489285 -0.016141893 0.119050406 -0.12269523 -0.0010866006 0.031248465
-0.09583149 -0.04794073 -0.076044925 -0.07346388 0.11144246 0.11962182 0.05896539 0.04640361
0.05518686 -0.06028087 0.12753539 0.0440069 0.06409631 -0.026178248 0.03428493 0.07504466
0.07246752 -0.06321724 0.12272906 -0.09475743 -0.05262794 0.11082955 0.061363775 -0.018943463
-0.120299526 -0.054248955 0.12041804 -0.022040024 0.10837033 0.052385874 0.086308785 -0.0719959
-0.017447477 0.07856366 0.08551421 0.048834726 -0.109552465 -0.10774251 0.03438312 -0.07909361
-0.0078567965 0.038787384 -0.0016160115 0.10327521 0.0047864905 0.08617962 -0.108613506 0.01169104
0.011032585 -0.084057376 -0.070513815 0.098112345 0.05742776 0.10752898 -0.04772598 -0.11917265
-0.012872842 0.031104801 0.11497739 0.03722219 -0.11102628 -0.07318603 -0.01020338 0.00836914
0.12282066 0.03548614 0.01777137 -0.076815315 0.10197788 0.11054133 0.10818197 -0.039745312
-0.090461574 -0.03372446 -0.033059098 -0.0428052 -0.03574852 -0.048435684 0.10117756 -0.1268927
-0.098740265 0.018466761 -0.07795393 0.11813765 -0.11643738 0.10463993 0.05662604 0.06787721
00000000: ee3f 033e b4d0 f63d 64a0 f23c 8d6a 66bd
00000010: dfdc 9b3d 3811 fa3d 7f4e b23c def0 b3bd
00000020: 20d7 8e3d f667 c13b 7ae2 263d 8c5f 00be
00000030: 5a95 163b 530d fe3d c25a e7bc 3189 c03d
00000040: 9503 a53d 9115 863d f58c d5bd 79b8 01be
00000050: a37f f43d 737f c7bc f8f5 aabd ed38 653c
00000060: 3c04 8c3d a691 b5bd 3720 603d faf1 893d
00000070: b87a b33d e43f e23d b26d 1c3d 08cc 88bb
00000080: 347f e7bd 6438 d1bc e266 273d 24bb aa3d
00000090: 4bb0 4ebd 0d6d 8dbd 377c 23bd ad61 79bc
000000a0: ad40 a3bd 57f8 fe3d d25a 92bc 68ce 02be
000000b0: 6f41 f33d a331 e63b 8b69 ecbd e05e 9c3d
000000c0: 4f38 f7bd 4ea9 f2bd 63b3 b9bd 9c9f d43d
000000d0: e2b0 b93d 7519 2bbd 2405 053d 9533 cdbd
000000e0: e860 02be 762a a03d c6f7 f43d 41e1 b5bd
000000f0: 03d0 e7bd 8523 d23d 9c10 003d b432 ad3d
00000100: 0eaf d6bb 237e e13d 1f6c a73d 6426 fabc
00000110: fdfe edbd 5345 fdbc 4500 62bd 54e8 f2bd
00000120: 9226 bfbd 07ba a43d b4f0 113d 10e6 b83d
00000130: 7983 f1bd 1702 5d3c 71e7 99bc f7f3 b6bd
00000140: c9da de3c 64f4 23bd 00c4 a0bd 4fcc a03d
00000150: f9ba 99bd 904d dbbd b873 72bd 52e9 e0ba
00000160: 17bd 61bd 8bb7 a43d 3ff7 4dbd 1cec 2ebd
00000170: 322c c53d 6120 e83d d642 56bd 13ee adbd
00000180: c1f8 b63d 9a75 fcbc 178b 8f3d 6164 b0bd
00000190: 521f 863c e58f ae3d 6bc6 1cbd 8da4 5b3d
000001a0: 4462 dcbc 9f92 d5bd acf3 b4bd f8a3 02bd
000001b0: d46e f93d ac1b b03d e478 883d 633a 91bd
000001c0: 8c1f c9bd 0c59 f6bc aa40 2d3d 440d 9abd
000001d0: 658e 82bc 2120 813d 984e ff3c 873f e53d
000001e0: 043c 5bbd bbb1 df3d 15cb 96bd 51da 09bd
000001f0: 1b8e 9fbd 7c94 0bbd 0c65 a6bd 2a38 ba3c
00000200: 773c 9d3c 0103 9a3d 02f8 9cba 8e18 b33d
00000210: e429 063d 7c59 9cbd 20f8 913d 36b5 4dba
00000220: 694a ebbd 9e2e aa3d a9ee 363d bbe3 a13c
00000230: a8fa 09bd 8849 853d 3f1e b8bd d408 873c
00000240: 2899 b6bd 8db3 b2bc f605 e63d 1ce9 fdbd
00000250: 1366 173d 7c0c a2bd 2a95 f93d 5966 323d
00000260: 56e1 33bd 61a3 6f3d 1c98 f6bc 99d8 853d
00000270: 114e f53d d450 b2bd b96c f3bc 4f02 833d
00000280: 4e52 1bbc 2661 8b3c 2f57 c23d 013c 84bc
00000290: b3d0 f33d a347 fbbd 446c 8eba c8fc ff3c
000002a0: 4d43 c4bd 805d 44bd 71bd 9bbd 3b74 96bd
000002b0: f23b e43d 49fc f43d b185 713d b611 3e3d
000002c0: 9e0b 623d 13e9 76bd a398 023e 9440 343d
000002d0: ed44 833d c473 d6bc 5b6e 0c3d 04b1 993d
000002e0: da69 943d 0a78 81bd 6059 fb3d 2f10 c2bd
000002f0: 6590 57bd 9afa e23d 9558 7b3d 522f 9bbc
00000300: 995f f6bd 2734 5ebd bc9d f63d 488d b4bc
00000310: 43f1 dd3d 9292 563d a9c2 b03d 9672 93bd
00000320: 03ee 8ebc fce5 a03d 1322 af3d ec06 483d
00000330: 0b5d e0bd 1ba8 dcbd 50d5 0c3d d5fb a1bd
00000340: cbb9 00bc 85df 1e3d 59d0 d3ba f481 d33d
00000350: fed7 9c3b f17e b03d c270 debd c78b 3f3c
00000360: 04c2 343c 4626 acbd 8c69 90bd 20ef c83d
00000370: 5f39 6b3d 2738 dc3d 517c 43bd ca10 f4bd
00000380: 9de8 52bc 7fcf fe3c 4479 eb3d 4c76 183d
00000390: bf61 e3bd 8fe2 95bd 142c 27bc b81e 093c
000003a0: 6689 fb3d ea59 113d 4495 913c 5951 9dbd
000003b0: c7d9 d03d 7e63 e23d 828e dd3d fbcb 22bd
000003c0: eb43 b9bd a922 0abd fa68 07bd 8154 2fbd
000003d0: 0a6d 12bd 7f64 46bd 2e36 cf3d 29f0 01be
000003e0: 5638 cabd 9b47 973c 4fa6 9fbd 27f2 f13d
000003f0: b976 eebd 764d d63d b5f0 673d 3503 8b3d

downs.2.block.0.bias f4 [10]
-0.09874363 0.11579309 0.038275227 0.028905068 -0.090179965 -0.016354581 0.08703165 -0.0356871
0.014903719 -0.12840414
00000000: 1a3a cabd ed24 ed3d 7cc6 1c3d 52ca ec3c
00000010: 46b0 b8bd 0bfa 85bc a63d b23d a32c 12bd
00000020: ba2e 743c 607c 03be

downs.2.block.1.weight f4 [10]
1.0 1.0 1.0 1.0 1.0 1.0 1.0 1.0
1.0 1.0
00000000: 0000 803f 0000 803f 0000 803f 0000 803f
00000010: 0000 803f 0000 803f 0000 803f 0000 803f
00000020: 0000 803f 0000 803f

downs.2.block.1.bias f4 [10]
0.0 0.0 0.0 0.0 0.0 0.0 0.0 0.0
0.0 0.0
00000000: 0000 0000 0000 0000 0000 0000 0000 0000
00000010: 0000 0000 0000 0000 0000 0000 0000 0000
00000020: 0000 0000 0000 0000

downs.2.block.1.running_mean f4 [10]
0.0 0.0 0.0 0.0 0.0 0.0 0.0 0.0
0.0 0.0
00000000: 0000 0000 0000 0000 0000 0000 0000 0000
00000010: 0000 0000 0000 0000 0000 0000 0000 0000
00000020: 0000 0000 0000 0000

downs.2.block.1.running_var f4 [10]
1.0 1.0 1.0 1.0 1.0 1.0 1.0 1.0
1.0 1.0
00000000: 0000 803f 0000 803f 0000 803f 0000 803f
00000010: 0000 803f 0000 803f 0000 803f 0000 803f
00000020: 0000 803f 0000 803f

downs.3.conv.weight f4 [10, 10, 6]
-0.04572796 -0.047017723 0.107049465 -0.108836025 -0.051230233 -0.043312356 -0.009345227 -0.07133197
0.114708066 0.11648431 -0.12224868 -0.035580523 -0.0065017203 -0.10652442 -0.061510228 0.057637908
0.10270246 0.018531691 0.12422936 -0.0883611 -0.048824232 -0.07068284 0.07884266 0.10693816
0.010073166 0.0908393 0.08144698 0.0012208308 -0.12693208 -0.051082462 0.074211776 -0.108284034
0.011920626 0.019612074 -0.0018006281 0.012540899 -0.10259193 0.040747546 -0.10736505 -0.093073025
0.0122821955 0.020251293 -0.10887668 0.1226424 -0.055926416 -0.02845056 0.08461709 -0.02607572
0.019477397 0.06668248 -0.093123674 0.073647015 0.072494365 0.099864244 0.118820794 0.088011704
0.023635136 -0.12542894 0.120593145 -0.12815133 -0.111389235 0.015942872 -0.11193314 -0.0104281185
0.07518299 -0.06806749 -0.1118432 0.09810862 0.109649904 -0.10249228 -0.12555873 0.12379487
-0.056320444 0.00036398543 -0.016649667 -0.022711745 -0.106426746 0.053343106 -0.0058569163 -0.07565635
0.032698527 0.096082225 0.11107728 0.090897135 0.07840253 -0.08186153 0.043745257 -0.07376671
-0.0037309467 0.05711422 -0.08719574 -0.06278038 0.10059892 -0.06188232 -0.020781718 0.104114175
0.057881482 -0.068985865 0.117794685 -0.123295374 0.09550818 -0.1122217 -0.11077125 0.06972378
-0.118435554 0.108360864 0.03779882 0.042382993 -0.08217818 -0.12815586 0.06473564 -0.08997499
-0.042222537 0.10900959 -0.061573617 -0.08876846 0.0043410156 0.014836049 0.06684473 0.079487234
0.0009570334 0.058707703 -0.026248487 -0.025804505 0.047745604 -0.10746326 -0.07694874 -0.0022094904
-0.06655166 -0.040826835 0.0066488166 -0.11260562 -0.08089171 0.07075519 -0.12507883 0.0725593
-0.11208867 0.10162242 0.050513346 -0.056865353 -0.07118944 0.04231543 0.048850488 0.07139325
-0.09943944 0.107902214 -0.011146439 -0.1262726 -0.048659746 -0.0012397142 0.05970572 -0.050120443
0.106543735 0.032228675 0.12630874 0.046917923 0.09675011 0.12254637 0.053121585 -0.028645411
-0.018424517 -0.09287187 0.044937246 0.056453183 0.00089747465 0.026388904 0.015722442 0.026562378
-0.08890161 -0.016123056 -0.02757971 -0.0019766574 -0.028371425 -0.089851916 0.017239697 0.119482465
0.07774806 -0.06559217 0.06857828 0.12578505 0.062279765 -0.115371265 0.09643896 -0.117718555
0.08358158 -0.012236411 -0.08643699 0.014247726 0.1168343 -0.06115946 -0.11916534 0.0051369634
-0.10104645 -0.12716113 -0.0030134409 -0.106753826 -0.064855084 0.10442429 -0.056584764 0.0053890804
-0.06673556 -0.08652897 -0.108646825 -0.07948527 -0.06321217 -0.112860285 0.09924675 -0.09990074
0.02544703 -0.12781069 0.12147889 -0.11567109 -0.11637153 -0.031700112 -0.123627074 0.0061586807
-0.0031567358 -0.06945727 -0.035231866 0.050109316 0.05173796 0.05872985 0.077157564 0.112877265
0.025203453 -0.04727852 0.075799815 0.06923044 -0.10010473 0.045491945 -0.095043145 0.11579608
0.013029219 -0.121602096 -0.096134566 0.041020885 0.12154603 -0.045778517 0.10135786 -0.04222317
0.010234421 -0.050681263 -0.0050758813 -0.07759884 0.06039083 -0.11401377 -0.109807536 0.121018305
-0.09331602 -0.03759635 -0.050892998 -0.011675697 0.11243202 0.061643332 -0.041216597 0.0069697103
00000000: 3e4d 3bbd a895 40bd c03c db3d 6ce5 debd
00000010: cbd6 51bd 4c68 31bd b91c 19bc 7f16 92bd
00000020: 10ec ea3d 538f ee3d 845d fabd e2bc 11bd
00000030: 620c d5bb 7a29 dabd 26f2 7bbd ba15 6c3d
00000040: ab55 d23d c6cf 973c f66b fe3d aaf6 b4bd
00000050: ebfb 47bd 2ac2 90bd 4378 a13d 6502 db3d
00000060: ec09 253c f409 ba3d adcd a63d 4904 a03a
00000070: 7cfa 01be d83b 51bd 58fc 973d 05c4 ddbd
00000080: bb4e 433c 80a9 a03c 0e03 ecba 5878 4d3c
00000090: b81b d2bd e6e6 263d 35e2 dbbd 129d bebd
000000a0: 433b 493c 0ae6 a53c bdfa debd f02b fb3d
000000b0: 1913 65bd 2611 e9bc ba4b ad3d c09c d5bc
000000c0: 108f 9f3c d390 883d a0b7 bebd 3fd4 963d
000000d0: ed77 943d a085 cc3d 5158 f33d 7b3f b43d
000000e0: 799e c13c 7270 00be 8af9 f63d 1a3a 03be
000000f0: 0a20 e4bd a09a 823c 343d e5bd b3da 2abc
00000100: 8af9 993d f866 8bbd 0c0e e5bd 2ced c83d
00000110: 2190 e03d 79e7 d1bd 7892 00be 2a88 fd3d
00000120: 44b0 66bd 4cd5 be39 e264 88bc fb0d babc
00000130: 44f6 d9bd 4d7e 5a3d 60eb bfbb b7f1 9abd
00000140: e4ee 053d c2c6 c43d 7c7c e33d 4728 ba3d
00000150: 8191 a03d 05a7 a7bd 3a2e 333d 0013 97bd
00000160: e682 74bb 9af0 693d ae93 b2bd 0093 80bd
00000170: ce06 ce3d 5178 7dbd 6c3e aabc d039 d53d
00000180: 2215 6d3d 7648 8dbd 573e f13d 4982 fcbd
00000190: cb99 c33d 7ed4 e5bd 0adc e2bd 57cb 8e3d
000001a0: 578e f2bd 4dec dd3d efd2 1a3d ca99 2d3d
000001b0: 094d a8bd 4a3b 03be 1f94 843d cf44 b8bd
000001c0: 8af1 2cbd 6c40 df3d 9e34 7cbd 3dcc b5bd
000001d0: 143f 8e3b e612 733c e4e5 883d 34ca a23d
000001e0: 6de1 7a3a 7d77 703d 1107 d7bc f863 d3bc
000001f0: e590 433d b315 dcbd 4d97 9dbd 19cd 10bb
00000200: 3d4c 88bd 0a3a 27bd 51de d93b c69d e6bd
00000210: 8eaa a5bd 19e8 903d aa14 00be f899 943d
00000220: bf8e e5bd 6a1f d03d 15e7 4e3d a5eb 68bd
00000230: c5cb 91bd f252 2d3d 7317 483d a036 923d
00000240: e8a6 cbbd d6fb dc3d 8e9f 36bc 9b4d 01be
00000250: 714f 47bd e87d a2ba fc8d 743d 184b 4dbd
00000260: 9a33 da3d 3702 043d 1457 013e 022d 403d
00000270: ec24 c63d 97f9 fa3d 0596 593d c8a9 eabc
00000280: 03ef 96bc 9b33 bebd 1e10 383d 743b 673d
00000290: 8144 6b3a 8b2d d83c 5acc 803c 5899 d93c
000002a0: 0c12 b6bd 8014 84bc d8ee e1bc cf8a 01bb
000002b0: 316b e8bc 4804 b8bd 443a 8d3c 39b3 f43d
000002c0: 603a 9f3d 3055 86bd c572 8c3d cccd 003e
000002d0: 1119 7f3d c547 ecbd ca81 c53d 6d16 f1bd
000002e0: d22c ab3d 3a7b 48bc e005 b1bd 4b6f 693c
000002f0: d246 ef3d 5882 7abd f50c f4bd f953 a83b
00000300: 71f1 cebd 8736 02be 267d 45bb c0a1 dabd
00000310: bed2 84bd 67dc d53d 6dc5 67bd e296 b03b
00000320: a7ac 88bd 1a36 b1bd 3a82 debd 2cc9 a2bd
00000330: 6275 81bd 4b23 e7bd e141 cb3d c298 ccbd
00000340: 4a76 d03c cee0 02be edc9 f83d f7e4 ecbd
00000350: 3254 eebd fad7 01bd 3130 fdbd c2ce c93b
00000360: 3de1 4ebb 9d3f 8ebd 4a4f 10bd 6d3f 4d3d
00000370: 2feb 533d b68e 703d c904 9e3d 322c e73d
00000380: 7977 ce3c 1fa7 41bd ef3c 9b3d b0c8 8d3d
00000390: b503 cdbd c355 3a3d fba5 c2bd 7f26 ed3d
000003a0: 8178 553c 850a f9bd 33e2 c4bd 8405 283d
000003b0: 20ed f83d 4182 3bbd b694 cf3d 34f2 2cbd
000003c0: 46ae 273c 2897 4fbd 9453 a6bb 24ec 9ebd
000003d0: 605c 773d 0d80 e9bd c6e2 e0bd 72d8 f73d
000003e0: 781c bfbd a1fe 19bd 2d75 50bd 6c4b 3fbc
000003f0: c242 e63d b87d 7c3d bcd2 28bd 2b62 e43b

downs.3.conv.bias f4 [10]
-0.12510383 0.03486305 0.017586863 -0.06998562 0.11130297 -0.110358946 0.122247204 0.053545944
0.008576811 0.07087316
00000000: 381b 00be 8fcc 0e3d 5312 903c 9f54 8fbd
00000010: d0f2 e33d df03 e2bd be5c fa3d fe52 5b3d
00000020: c185 0c3c f325 913d

downs.3.norm.weight f4 [10]
1.0 1.0 1.0 1.0 1.0 1.0 1.0 1.0
1.0 1.0
00000000: 0000 803f 0000 803f 0000 803f 0000 803f
00000010: 0000 803f 0000 803f 0000 803f 0000 803f
00000020: 0000 803f 0000 803f

downs.3.norm.bias f4 [10]
0.0 0.0 0.0 0.0 0.0 0.0 0.0 0.0
0.0 0.0
00000000: 0000 0000 0000 0000 0000 0000 0000 0000
00000010: 0000 0000 0000 0000 0000 0000 0000 0000
00000020: 0000 0000 0000 0000

downs.3.norm.running_mean f4 [10]
0.0 0.0 0.0 0.0 0.0 0.0 0.0 0.0
0.0 0.0
00000000: 0000 0000 0000 0000 0000 0000 0000 0000
00000010: 0000 0000 0000 0000 0000 0000 0000 0000
00000020: 0000 0000 0000 0000

downs.3.norm.running_var f4 [10]
1.0 1.0 1.0 1.0 1.0 1.0 1.0 1.0
1.0 1.0
00000000: 0000 803f 0000 803f 0000 803f 0000 803f
00000010: 0000 803f 0000 803f 0000 803f 0000 803f
00000020: 0000 803f 0000 803f

downs.3.block.0.weight f4 [10, 10, 6]
-0.04572796 -0.047017723 0.107049465 -0.108836025 -0.051230233 -0.043312356 -0.009345227 -0.07133197
0.114708066 0.11648431 -0.12224868 -0.035580523 -0.0065017203 -0.10652442 -0.061510228 0.057637908
0.10270246 0.018531691 0.12422936 -0.0883611 -0.048824232 -0.07068284 0.07884266 0.10693816
0.010073166 0.0908393 0.08144698 0.0012208308 -0.12693208 -0.051082462 0.074211776 -0.108284034
0.011920626 0.019612074 -0.0018006281 0.012540899 -0.10259193 0.040747546 -0.10736505 -0.093073025
0.0122821955 0.020251293 -0.10887668 0.1226424 -0.055926416 -0.02845056 0.08461709 -0.02607572
0.019477397 0.06668248 -0.093123674 0.073647015 0.072494365 0.099864244 0.118820794 0.088011704
0.023635136 -0.12542894 0.120593145 -0.12815133 -0.111389235 0.015942872 -0.11193314 -0.0104281185
0.07518299 -0.06806749 -0.1118432 0.09810862 0.109649904 -0.10249228 -0.12555873 0.12379487
-0.056320444 0.00036398543 -0.016649667 -0.022711745 -0.106426746 0.053343106 -0.0058569163 -0.07565635
0.032698527 0.096082225 0.11107728 0.090897135 0.07840253 -0.08186153 0.043745257 -0.07376671
-0.0037309467 0.05711422 -0.08719574 -0.06278038 0.10059892 -0.06188232 -0.020781718 0.104114175
0.057881482 -0.068985865 0.117794685 -0.123295374 0.09550818 -0.1122217 -0.11077125 0.06972378
-0.118435554 0.108360864 0.03779882 0.042382993 -0.08217818 -0.12815586 0.06473564 -0.08997499
-0.042222537 0.10900959 -0.061573617 -0.08876846 0.0043410156 0.014836049 0.06684473 0.079487234
0.0009570334 0.058707703 -0.026248487 -0.025804505 0.047745604 -0.10746326 -0.07694874 -0.0022094904
-0.06655166 -0.040826835 0.0066488166 -0.11260562 -0.08089171 0.07075519 -0.12507883 0.0725593
-0.11208867 0.10162242 0.050513346 -0.056865353 -0.07118944 0.04231543 0.048850488 0.07139325
-0.09943944 0.107902214 -0.011146439 -0.1262726 -0.048659746 -0.0012397142 0.05970572 -0.050120443
0.106543735 0.032228675 0.12630874 0.046917923 0.09675011 0.12254637 0.053121585 -0.028645411
-0.018424517 -0.09287187 0.044937246 0.056453183 0.00089747465 0.026388904 0.015722442 0.026562378
-0.08890161 -0.016123056 -0.02757971 -0.0019766574 -0.028371425 -0.089851916 0.017239697 0.119482465
0.07774806 -0.06559217 0.06857828 0.12578505 0.062279765 -0.115371265 0.09643896 -0.117718555
0.08358158 -0.012236411 -0.08643699 0.014247726 0.1168343 -0.06115946 -0.11916534 0.0051369634
-0.10104645 -0.12716113 -0.0030134409 -0.106753826 -0.064855084 0.10442429 -0.056584764 0.0053890804
-0.06673556 -0.08652897 -0.108646825 -0.07948527 -0.06321217 -0.112860285 0.09924675 -0.09990074
0.02544703 -0.12781069 0.12147889 -0.11567109 -0.11637153 -0.031700112 -0.123627074 0.0061586807
-0.0031567358 -0.06945727 -0.035231866 0.050109316 0.05173796 0.05872985 0.077157564 0.112877265
0.025203453 -0.04727852 0.075799815 0.06923044 -0.10010473 0.045491945 -0.095043145 0.11579608
0.013029219 -0.121602096 -0.096134566 0.041020885 0.12154603 -0.045778517 0.10135786 -0.04222317
0.010234421 -0.050681263 -0.0050758813 -0.07759884 0.06039083 -0.11401377 -0.109807536 0.121018305
-0.09331602 -0.03759635 -0.050892998 -0.011675697 0.11243202 0.061643332 -0.041216597 0.0069697103
00000000: 3e4d 3bbd a895 40bd c03c db3d 6ce5 debd
00000010: cbd6 51bd 4c68 31bd b91c 19bc 7f16 92bd
00000020: 10ec ea3d 538f ee3d 845d fabd e2bc 11bd
00000030: 620c d5bb 7a29 dabd 26f2 7bbd ba15 6c3d
00000040: ab55 d23d c6cf 973c f66b fe3d aaf6 b4bd
00000050: ebfb 47bd 2ac2 90bd 4378 a13d 6502 db3d
00000060: ec09 253c f409 ba3d adcd a63d 4904 a03a
00000070: 7cfa 01be d83b 51bd 58fc 973d 05c4 ddbd
00000080: bb4e 433c 80a9 a03c 0e03 ecba 5878 4d3c
00000090: b81b d2bd e6e6 263d 35e2 dbbd 129d bebd
000000a0: 433b 493c 0ae6 a53c bdfa debd f02b fb3d
000000b0: 1913 65bd 2611 e9bc ba4b ad3d c09c d5bc
000000c0: 108f 9f3c d390 883d a0b7 bebd 3fd4 963d
000000d0: ed77 943d a085 cc3d 5158 f33d 7b3f b43d
000000e0: 799e c13c 7270 00be 8af9 f63d 1a3a 03be
000000f0: 0a20 e4bd a09a 823c 343d e5bd b3da 2abc
00000100: 8af9 993d f866 8bbd 0c0e e5bd 2ced c83d
00000110: 2190 e03d 79e7 d1bd 7892 00be 2a88 fd3d
00000120: 44b0 66bd 4cd5 be39 e264 88bc fb0d babc
00000130: 44f6 d9bd 4d7e 5a3d 60eb bfbb b7f1 9abd
00000140: e4ee 053d c2c6 c43d 7c7c e33d 4728 ba3d
00000150: 8191 a03d 05a7 a7bd 3a2e 333d 0013 97bd
00000160: e682 74bb 9af0 693d ae93 b2bd 0093 80bd
00000170: ce06 ce3d 5178 7dbd 6c3e aabc d039 d53d
00000180: 2215 6d3d 7648 8dbd 573e f13d 4982 fcbd
00000190: cb99 c33d 7ed4 e5bd 0adc e2bd 57cb 8e3d
000001a0: 578e f2bd 4dec dd3d efd2 1a3d ca99 2d3d
000001b0: 094d a8bd 4a3b 03be 1f94 843d cf44 b8bd
000001c0: 8af1 2cbd 6c40 df3d 9e34 7cbd 3dcc b5bd
000001d0: 143f 8e3b e612 733c e4e5 883d 34ca a23d
000001e0: 6de1 7a3a 7d77 703d 1107 d7bc f863 d3bc
000001f0: e590 433d b315 dcbd 4d97 9dbd 19cd 10bb
00000200: 3d4c 88bd 0a3a 27bd 51de d93b c69d e6bd
00000210: 8eaa a5bd 19e8 903d aa14 00be f899 943d
00000220: bf8e e5bd 6a1f d03d 15e7 4e3d a5eb 68bd
00000230: c5cb 91bd f252 2d3d 7317 483d a036 923d
00000240: e8a6 cbbd d6fb dc3d 8e9f 36bc 9b4d 01be
00000250: 714f 47bd e87d a2ba fc8d 743d 184b 4dbd
00000260: 9a33 da3d 3702 043d 1457 013e 022d 403d
00000270: ec24 c63d 97f9 fa3d 0596 593d c8a9 eabc
00000280: 03ef 96bc 9b33 bebd 1e10 383d 743b 673d
00000290: 8144 6b3a 8b2d d83c 5acc 803c 5899 d93c
000002a0: 0c12 b6bd 8014 84bc d8ee e1bc cf8a 01bb
000002b0: 316b e8bc 4804 b8bd 443a 8d3c 39b3 f43d
000002c0: 603a 9f3d 3055 86bd c572 8c3d cccd 003e
000002d0: 1119 7f3d c547 ecbd ca81 c53d 6d16 f1bd
000002e0: d22c ab3d 3a7b 48bc e005 b1bd 4b6f 693c
000002f0: d246 ef3d 5882 7abd f50c f4bd f953 a83b
00000300: 71f1 cebd 8736 02be 267d 45bb c0a1 dabd
00000310: bed2 84bd 67dc d53d 6dc5 67bd e296 b03b
00000320: a7ac 88bd 1a36 b1bd 3a82 debd 2cc9 a2bd
00000330: 6275 81bd 4b23 e7bd e141 cb3d c298 ccbd
00000340: 4a76 d03c cee0 02be edc9 f83d f7e4 ecbd
00000350: 3254 eebd fad7 01bd 3130 fdbd c2ce c93b
00000360: 3de1 4ebb 9d3f 8ebd 4a4f 10bd 6d3f 4d3d
00000370: 2feb 533d b68e 703d c904 9e3d 322c e73d
00000380: 7977 ce3c 1fa7 41bd ef3c 9b3d b0c8 8d3d
00000390: b503 cdbd c355 3a3d fba5 c2bd 7f26 ed3d
000003a0: 8178 553c 850a f9bd 33e2 c4bd 8405 283d
000003b0: 20ed f83d 4182 3bbd b694 cf3d 34f2 2cbd
000003c0: 46ae 273c 2897 4fbd 9453 a6bb 24ec 9ebd
000003d0: 605c 773d 0d80 e9bd c6e2 e0bd 72d8 f73d
000003e0: 781c bfbd a1fe 19bd 2d75 50bd 6c4b 3fbc
000003f0: c242 e63d b87d 7c3d bcd2 28bd 2b62 e43b

downs.3.block.0.bias f4 [10]
-0.12510383 0.03486305 0.017586863 -0.06998562 0.11130297 -0.110358946 0.122247204 0.053545944
0.008576811 0.07087316
00000000: 381b 00be 8fcc 0e3d 5312 903c 9f54 8fbd
00000010: d0f2 e33d df03 e2bd be5c fa3d fe52 5b3d
00000020: c185 0c3c f325 913d

downs.3.block.1.weight f4 [10]
1.0 1.0 1.0 1.0 1.0 1.0 1.0 1.0
1.0 1.0
00000000: 0000 803f 0000 803f 0000 803f 0000 803f
00000010: 0000 803f 0000 803f 0000 803f 0000 803f
00000020: 0000 803f 0000 803f

downs.3.block.1.bias f4 [10]
0.0 0.0 0.0 0.0 0.0 0.0 0.0 0.0
0.0 0.0
00000000: 0000 0000 0000 0000 0000 0000 0000 0000
00000010: 0000 0000 0000 0000 0000 0000 0000 0000
00000020: 0000 0000 0000 0000

downs.3.block.1.running_mean f4 [10]
0.0 0.0 0.0 0.0 0.0 0.0 0.0 0.0
0.0 0.0
00000000: 0000 0000 0000 0000 0000 0000 0000 0000
00000010: 0000 0000 0000 0000 0000 0000 0000 0000
00000020: 0000 0000 0000 0000

downs.3.block.1.running_var f4 [10]
1.0 1.0 1.0 1.0 1.0 1.0 1.0 1.0
1.0 1.0
00000000: 0000 803f 0000 803f 0000 803f 0000 803f
00000010: 0000 803f 0000 803f 0000 803f 0000 803f
00000020: 0000 803f 0000 803f
